checkpoints/long_term_forecast_coffee_PatchTST_custom_ftS_sl24_ll12_pl24_dm32_nh8_el3_dl2_df64_fc3_ebfixed_dtTrue_Exp_0/checkpoint.pth (torch, 774635 bytes, 54 tensors)

patch_embedding.value_embedding.weight f4 [32, 16]
000000 87 30 36 be 9e 2f 57 3c 1e 47 02 3e d7 f2 e6 3d
       -0.17791949 0.013133911 0.12722442 0.11276787
000010 9a 1e 17 3d 3d a5 2e be c6 ab 6e be 9e b1 66 3e
       0.03689442 -0.17055221 -0.23307714 0.22528693
000020 66 b9 df bd 1b f8 53 be d4 9c 17 3e 69 9b 7e be
       -0.10924034 -0.20700113 0.14805919 -0.24863972
000030 33 83 1d 3e d3 f3 47 be b0 c4 ef 3d 35 a3 9d bd
       0.1538208 -0.19526605 0.11707437 -0.07697145
000040 35 bd 5c 3c 4b d9 c2 bd 67 fc 17 3e 8a ec 01 3e
       0.013472845 -0.095141016 0.14842378 0.12687889
000050 42 a9 22 3e 9c ff bb bd 4c b9 81 3e 7e 39 ee 3b
       0.15884879 -0.09179613 0.25336683 0.007270037
000060 9e c2 6b bd 3b 03 65 be 33 ed 32 3e 78 89 5b be
       -0.05755865 -0.22364514 0.17473297 -0.21439159
000070 89 bd 1f be b7 f1 a3 bd 3a 85 c7 3d fb 99 d0 3d
       -0.15599646 -0.08005088 0.09742208 0.101856194
000080 21 a7 29 3e d3 b4 f0 3b 60 2d ef 3d cc 30 22 3e
       0.16567661 0.0073457747 0.116785765 0.15838927
000090 13 43 7b be af d1 5c be 0b e7 7d be 10 09 3c be
       -0.24537306 -0.21564363 -0.24795167 -0.18362832
0000a0 a1 05 f1 3d 7b b0 5c 3e 59 83 a3 3d aa 0d 4d be
       0.11768652 0.21551697 0.07984037 -0.20024744
0000b0 a8 9b e9 3d e3 c4 08 3e fc 7a 5c 3e ee 10 70 be
       0.11406642 0.13356356 0.2153129 -0.23443958
0000c0 30 1b 06 bd 07 6b 03 be 41 27 5c 3e db 02 09 3e
       -0.03274077 -0.12833796 0.21499349 0.13379996
0000d0 54 f0 c5 3c 10 51 17 3c ac 4a cd 3d 88 a8 4f be
       0.024162449 0.009235635 0.10024008 -0.20279133
0000e0 ce 58 02 bd ac 87 46 be a3 30 a9 3d 6f 35 91 3d
       -0.031822972 -0.19387692 0.0826123 0.0709027
0000f0 13 96 65 be 78 ef 8e bc 38 c2 df 3d 87 f4 f3 3d
       -0.2242053 -0.017448172 0.10925716 0.11911874
000100 31 49 6e 3e 33 f2 68 be a6 8f a1 bd 79 9d d3 bd
       0.23270108 -0.22748642 -0.07888727 -0.1033277
000110 48 3c 5a be 20 df 76 be ec 57 40 be fb f4 e5 3d
       -0.21312058 -0.24108553 -0.1878354 0.11228367
000120 4e 11 5d be 4a c6 ef bd d6 c4 2d be 20 a6 47 be
       -0.21588632 -0.117077425 -0.16969618 -0.19496965
000130 c6 86 63 3e f6 55 f0 bc fc 28 ae bd 2e df 68 3e
       0.2221938 -0.029337864 -0.08503911 0.22741386
000140 d7 c0 17 be 95 d6 e0 bd 36 d2 af bd d7 a6 30 be
       -0.14819656 -0.10978428 -0.085850164 -0.17251144
000150 65 11 ff bd 18 27 85 bd db e7 6f 3c 38 87 1a be
       -0.124544896 -0.06501597 0.014642681 -0.15090644
000160 00 f6 51 bc 70 6f 79 3e 56 62 c9 3a a8 ed 01 bd
       -0.012814999 0.24358916 0.0015364389 -0.031720787
000170 a0 ef 7d be d9 ae 3b be b9 d1 02 3e 42 16 1b 3e
       -0.24798441 -0.18328418 0.12775315 0.1514521
000180 35 e4 74 be ee 3d 5e 3d 19 b2 68 3d 90 20 be bd
       -0.23915179 0.05425828 0.056810472 -0.092835546
000190 21 e4 4d 3e 0c c3 2f 3d af f7 3c be af 00 5e 3e
       0.20106556 0.04291062 -0.18453859 0.21679948
0001a0 71 08 fa 3d 85 01 e5 bd 0e 0f d7 3c dc 91 41 3e
       0.12208641 -0.111819305 0.026252296 0.18903297
0001b0 a6 1b 4b 3e 5b fa 00 3e 86 e0 9a 3d 2e 1e d2 bb
       0.19834766 0.12595503 0.07562356 -0.006412289
0001c0 47 34 40 3d af 3b 34 be c2 e0 1b 3c 33 10 74 be
       0.046924856 -0.17600892 0.009514036 -0.23834305
0001d0 32 30 1a 3e 5e f3 2b be 7a e3 25 be 2d 77 52 3e
       0.15057448 -0.16792056 -0.16200057 0.20553274
0001e0 e4 02 99 bd c5 99 24 be ac ef 4d be 3b 8b e1 3d
       -0.074712545 -0.16074283 -0.20110959 0.11012884
0001f0 10 73 68 be 7c a7 3d 3e a8 24 96 3d 65 cc 69 3e
       -0.22700143 0.18520921 0.073312104 0.22831877
000200 84 ab d4 bd e4 de 64 be c2 05 f8 bc fc 54 45 3e
       -0.103842765 -0.22350651 -0.030276183 0.192707
000210 41 b2 00 be ff f3 73 be 86 9f 3e 3e 50 ac 2d 3e
       -0.12567998 -0.23823546 0.18615541 0.16960263
000220 06 da 48 3e 37 ad 1d 3e 85 30 94 3b 1b 94 52 be
       0.1961442 0.15398107 0.0045223855 -0.2056431
000230 dc 2d 30 be 3a d5 e5 bd 08 49 21 be 7f 88 41 be
       -0.17204994 -0.1122231 -0.15750515 -0.18899725
000240 52 24 3e 3e 41 96 3c 3e 0b e8 26 be cc 3f 8d bc
       0.18568543 0.18416692 -0.16299455 -0.017242335
000250 ff e6 74 3e ca a1 f8 3d 37 a3 52 bd 82 4b 8e bd
       0.23916243 0.12140234 -0.051425185 -0.06947996
000260 dc 6c 02 3e 92 ad c8 bd 1f 40 43 be 59 c0 92 bd
       0.12736839 -0.09798731 -0.19067429 -0.07165594
000270 76 e6 1f 3e 65 2b d6 bd 97 a6 37 be 4e f0 c8 bd
       0.15615258 -0.104574956 -0.17934643 -0.098114595
000280 c4 7d c8 bd 9b 60 3d be 86 4c 8d bb a8 c3 02 3e
       -0.09789613 -0.18493883 -0.004312101 0.1276995
000290 60 55 71 3e 89 3b 93 3d 6c ea 4f 3e 8b c8 d4 3d
       0.23567724 0.0718909 0.20304269 0.10389813
0002a0 a6 b9 6e bd 72 5e 3b be 78 b7 6d bd bc 24 01 3e
       -0.058282517 -0.18297747 -0.058036298 0.1261167
0002b0 8e 06 75 3d 9e ec 73 bd a3 67 44 bb 38 f3 bd 3d
       0.059820704 -0.059551828 -0.0029969 0.09274906
0002c0 d3 1a 22 bd 5a 96 37 3e 7f eb 27 be 2b d5 c7 3c
       -0.039576363 0.17928448 -0.16398428 0.024393639
0002d0 b4 5d fe 3d 93 ab 46 3e f9 0f ed 3c 41 22 3c 3c
       0.12420216 0.19401388 0.02893828 0.011482776
0002e0 d7 d0 59 3e a6 35 3b be 9a 55 fd bd f8 82 1b be
       0.21271072 -0.18282184 -0.12369843 -0.1518668
0002f0 8b 10 6f 3e 74 be c4 3b 29 2f 54 be 15 ae c7 3c
       0.23346154 0.006004149 -0.20721115 0.024375001
000300 ad b1 6b be b6 1f 12 3e 8d c2 4e 3e c3 49 e2 3d
       -0.23016997 0.1426991 0.20191403 0.11049225
000310 1f 9d 3d bd 10 b6 08 be a0 86 66 3e a8 5d 16 bd
       -0.04629242 -0.13350701 0.22512293 -0.03671041
000320 8a 37 dd 3d 62 57 1d bc 3a f9 58 3e ba ee 16 bd
       0.10801609 -0.009603353 0.21188822 -0.03684876
000330 f3 04 2a 3e ac 95 37 be 79 7f 50 be 13 4d 45 3d
       0.1660345 -0.17928189 -0.20361127 0.048169207
000340 78 14 51 3e 01 c6 2c be 10 f9 24 3e dc 08 d6 3c
       0.20417964 -0.16872407 0.16110635 0.026127271
000350 af d3 66 be 20 33 1d be fc 80 18 bd ce f8 1a 3d
       -0.22541688 -0.15351534 -0.037232384 0.037834935
000360 da cc d8 3d 6a 1d 65 3e 57 ff 65 3e 2a 2a 53 be
       0.10585947 0.22374502 0.22460686 -0.20621553
000370 0a 7f 11 3e f1 dd 83 bd d4 f2 35 bc 93 cb 74 3e
       0.14208618 -0.06438816 -0.011105258 0.23905782
000380 95 94 55 bd ff e9 de bd 32 e5 08 3e dc 16 53 3b
       -0.052143652 -0.10884475 0.13368681 0.003220967
000390 15 fc 97 3d 0b a8 ea 3c aa e1 73 3e 14 e7 52 3e
       0.07421128 0.028644582 0.23816553 0.20595962
0003a0 f7 a0 b4 3d bb 72 08 3d e0 49 aa 3d ac d8 b6 bd
       0.08819764 0.03331254 0.08314872 -0.08928046
0003b0 1a 93 1a 3e ff d9 56 3e 3d e2 4e 3e fc e5 07 be
       0.15095177 0.20981596 0.2020349 -0.13271326
0003c0 e8 6f e0 bd 16 84 60 3e 51 e2 50 3e 95 22 22 3e
       -0.109588444 0.21925387 0.20398833 0.15833504
0003d0 64 a2 58 3e a4 dc 70 3e 5d 16 02 be c6 db 44 be
       0.21155697 0.23521668 -0.12703843 -0.19224462
0003e0 0d f4 1b 3b 55 35 22 3e e5 a6 d9 bd 18 17 16 be
       0.0023796589 0.15840657 -0.10627536 -0.14657247
0003f0 ce 65 76 be 47 3b 29 3d 0c 7e 18 3d d3 13 04 be
       -0.24062273 0.041316297 0.037229583 -0.12898187

patch_embedding.position_embedding.pe f4 [1, 5000, 32]
000000 00 00 00 00 00 00 80 3f 00 00 00 00 00 00 80 3f
       0.0 1.0 0.0 1.0
000010 00 00 00 00 00 00 80 3f 00 00 00 00 00 00 80 3f
       0.0 1.0 0.0 1.0
000020 00 00 00 00 00 00 80 3f 00 00 00 00 00 00 80 3f
       0.0 1.0 0.0 1.0
000030 00 00 00 00 00 00 80 3f 00 00 00 00 00 00 80 3f
       0.0 1.0 0.0 1.0
000040 00 00 00 00 00 00 80 3f 00 00 00 00 00 00 80 3f
       0.0 1.0 0.0 1.0
000050 00 00 00 00 00 00 80 3f 00 00 00 00 00 00 80 3f
       0.0 1.0 0.0 1.0
000060 00 00 00 00 00 00 80 3f 00 00 00 00 00 00 80 3f
       0.0 1.0 0.0 1.0
000070 00 00 00 00 00 00 80 3f 00 00 00 00 00 00 80 3f
       0.0 1.0 0.0 1.0
000080 a4 6a 57 3f 41 51 0a 3f ba 7d 08 3f 0d 94 58 3f
       0.84147096 0.54030234 0.53316844 0.8460091
000090 3e 39 9f 3e 6b 4e 73 3f 3a 23 35 3e 83 f6 7b 3f
       0.3109836 0.9504153 0.17689219 0.9842302
0000a0 76 75 cc 3d 98 b8 7e 3f ae 36 66 3d 68 98 7f 3f
       0.099833414 0.9950042 0.05620449 0.9984193
0000b0 5b 81 01 3d 3c df 7f 3f 42 ab 91 3c a3 f5 7f 3f
       0.031617504 0.99950004 0.017781857 0.99984187
0000c0 57 d6 23 3c b9 fc 7f 3f 5a 44 b8 3b f7 fe 7f 3f
       0.009999833 0.99995 0.0056233825 0.9999842
0000d0 1c 3e 4f 3b ac ff 7f 3f 20 15 e9 3a e6 ff 7f 3f
       0.0031622713 0.999995 0.0017782785 0.99999845
0000e0 6d 12 83 3a f8 ff 7f 3f 13 6a 13 3a fd ff 7f 3f
       0.0009999998 0.9999995 0.0005623411 0.9999998
0000f0 61 cb a5 39 ff ff 7f 3f 53 77 3a 39 00 00 80 3f
       0.00031622782 0.99999994 0.00017782794 1.0
000100 b7 c7 68 3f 33 11 d5 be 0a f2 66 3f b2 e8 dc 3e
       0.9092974 -0.41614684 0.9021307 0.43146282
000110 1b 54 17 3f ec 7b 4e 3f f6 47 b2 3e a6 fa 6f 3f
       0.5911271 0.8065784 0.34820527 0.93741834
000120 f8 6f 4b 3e a5 e5 7a 3f 86 d9 e5 3d f3 61 7e 3f
       0.19866931 0.9800666 0.1122313 0.9936821
000130 c8 70 81 3d f9 7c 7f 3f 5c a5 11 3d 8e d6 7f 3f
       0.063203394 0.9980007 0.03555809 0.9993676
000140 3e d4 a3 3c e5 f2 7f 3f 9b 43 38 3c db fb 7f 3f
       0.019998666 0.9998 0.011246587 0.99993676
000150 d8 3d cf 3b b1 fe 7f 3f 08 15 69 3b 96 ff 7f 3f
       0.006324511 0.99998003 0.0035565514 0.9999937
000160 68 12 03 3b df ff 7f 3f 12 6a 93 3a f5 ff 7f 3f
       0.0019999985 0.99999803 0.0011246821 0.99999934
000170 60 cb 25 3a fd ff 7f 3f 53 77 ba 39 ff ff 7f 3f
       0.0006324556 0.9999998 0.00035565588 0.99999994
000180 c3 81 10 3e 26 70 7d bf d7 45 7e 3f ab 7f ed bd
       0.14112 -0.9899925 0.9932532 -0.11596616
000190 c2 09 50 3f 58 2f 15 3f 6c 2f 02 3f 29 6d 5c 3f
       0.8126489 0.58275366 0.5085361 0.86104065
0001a0 6c 4e 97 3e ef 90 74 3f d7 ee 2b 3e 9e 5d 7c 3f
       0.2955202 0.9553365 0.16790329 0.9858035
0001b0 c0 ff c1 3d 4f d9 7e 3f 4e 69 5a 3d c3 a2 7f 3f
       0.094726086 0.99550337 0.053323083 0.9985773
0001c0 1f b9 f5 3c 83 e2 7f 3f c6 31 8a 3c ad f6 7f 3f
       0.0299955 0.99955004 0.016869437 0.9998577
0001d0 0d 6e 1b 3c 0d fd 7f 3f a8 cf ae 3b 11 ff 7f 3f
       0.009486687 0.999955 0.005334813 0.99998575
0001e0 92 9b 44 3b b5 ff 7f 3f 17 1f dd 3a e8 ff 7f 3f
       0.0029999954 0.9999955 0.0016870227 0.99999857
0001f0 10 b1 78 3a f9 ff 7f 3f 7e d9 0b 3a fe ff 7f 3f
       0.00094868336 0.9999996 0.0005334838 0.9999999
000200 cf bd 41 bf 30 55 27 bf ec 49 47 3f 9e af 20 bf
       -0.7568025 -0.6536436 0.7784717 -0.6276797
000210 de 1d 74 3f b1 2e 9a 3e bc 1f 27 3f ed eb 41 3f
       0.95358074 0.30113748 0.652828 0.7575062
000220 d7 61 c7 3e a7 ca 6b 3f c5 65 64 3e 09 8d 79 3f
       0.38941833 0.921061 0.22304447 0.9748083
000230 88 2e 01 3e 69 f4 7d 3f c8 8d 91 3d 46 5a 7f 3f
       0.12615407 0.99201065 0.07107121 0.9974712
000240 db cb 23 3d 94 cb 7f 3f a0 40 b8 3c 6c ef 7f 3f
       0.039989334 0.9992001 0.022491753 0.99974704
000250 c9 3c 4f 3c c2 fa 7f 3f a7 14 e9 3b 58 fe 7f 3f
       0.01264877 0.99992 0.0071130577 0.9999747
000260 57 12 83 3b 7a ff 7f 3f 0c 6a 13 3b d6 ff 7f 3f
       0.003999989 0.999992 0.0022493629 0.9999975
000270 5e cb a5 3a f3 ff 7f 3f 52 77 3a 3a fc ff 7f 3f
       0.0012649109 0.9999992 0.0007113117 0.99999976
000280 10 7c 75 bf 2c 3c 91 3e d8 da a5 3e 40 32 72 bf
       -0.9589243 0.2836622 0.32393527 -0.94607925
000290 7f fc 7f 3f e9 72 29 bc ab ca 46 3f f1 4c 21 3f
       0.99994653 -0.010342338 0.77652997 0.6300803
0002a0 43 77 f5 3e 40 a9 60 3f ed 11 8e 3e 7c f2 75 3f
       0.47942552 0.87758255 0.2774805 0.96073127
0002b0 1d 3c 21 3e 81 ce 7c 3f 21 db b5 3d 1e fd 7e 3f
       0.15745588 0.987526 0.08879686 0.99604976
0002c0 f4 b6 4c 3d 19 ae 7f 3f fb 4d e6 3c 19 e6 7f 3f
       0.049979165 0.99875027 0.028113356 0.99960476
0002d0 7e 85 81 3c cf f7 7f 3f bb ac 11 3c 69 fd 7f 3f
       0.015810724 0.999875 0.00889128 0.9999605
0002e0 dd d6 a3 3b 2e ff 7f 3f 89 44 38 3b be ff 7f 3f
       0.004999979 0.9999875 0.0028117022 0.99999607
0002f0 33 3e cf 3a eb ff 7f 3f 26 15 69 3a f9 ff 7f 3f
       0.0015811383 0.99999875 0.0008891396 0.9999996
000300 8c 0f 8f be b8 cd 75 3f 76 e5 6b be 53 1d 79 bf
       -0.2794155 0.96017027 -0.23036751 -0.9731037
000310 4e 78 72 3f 6d 3f a4 be 88 30 60 3f 35 2f f7 3e
       0.9471482 -0.3207964 0.8757405 0.48278204
000320 68 8c 10 3f 32 49 53 3f fc 7d a9 3e e2 90 71 3f
       0.5646424 0.8253356 0.3310393 0.943617
000330 6e 20 41 3e e3 67 7b 3f c2 19 da 3d 51 8b 7e 3f
       0.18860027 0.98205394 0.10649444 0.9943133
000340 d1 9c 75 3d 12 8a 7f 3f be 2c 0a 3d b3 da 7f 3f
       0.059964005 0.99820054 0.033734076 0.99943084
000350 43 6c 9b 3c 34 f4 7f 3f 05 cf 2e 3c 45 fc 7f 3f
       0.018972522 0.99982 0.0106694745 0.9999431
000360 58 9b c4 3b d2 fe 7f 3f 03 1f 5d 3b a1 ff 7f 3f
       0.0059999637 0.999982 0.0033740408 0.99999434
000370 08 b1 f8 3a e2 ff 7f 3f 7c d9 8b 3a f7 ff 7f 3f
       0.0018973658 0.9999982 0.0010669674 0.99999946
000380 46 30 28 3f bd ff 40 3f 70 b6 36 bf 5e 4f 33 bf
       0.6569866 0.75390226 -0.7137213 -0.7004298
000390 6e e8 4c 3f bc 74 19 bf 44 84 72 3f ba f8 a3 3e
       0.8004216 -0.5994375 0.9473307 0.320257
0003a0 72 eb 24 3f b3 cc 43 3f de 60 c4 3e c6 6b 6c 3f
       0.6442176 0.7648422 0.38355154 0.9235195
0003b0 50 d3 60 3e ea c0 79 3f ba 46 fe 3d e9 04 7e 3f
       0.2195561 0.9755999 0.12415834 0.9922624
0003c0 32 3e 8f 3d 81 5f 7f 3f 5e 31 21 3d 3b cd 7f 3f
       0.06994285 0.997551 0.03935372 0.9992253
0003d0 a2 52 b5 3c f2 ef 7f 3f 2a f1 4b 3c ec fa 7f 3f
       0.022134129 0.999755 0.012447635 0.9999225
0003e0 c5 5f e5 3b 65 fe 7f 3f bc fc 80 3b 7e ff 7f 3f
       0.006999942 0.9999755 0.0039363783 0.99999225
0003f0 ed 11 11 3b d7 ff 7f 3f 66 28 a3 3a f3 ff 7f 3f
       0.0022135929 0.99999756 0.0012447953 0.9999992

encoder.attn_layers.0.attention.query_projection.weight f4 [32, 32]
000000 31 d6 9e bd 12 9a 26 bc 99 c8 ab 3d ae f9 5d 3d
       -0.077556975 -0.010168569 0.0838787 0.05419319
000010 9b 91 0f 3e 23 ea 0d be 11 66 b9 bd f1 3e 2d 3d
       0.14020388 -0.13858847 -0.09052671 0.042296354
000020 7d f2 b5 3d f3 cd 34 3e 30 3b 7e 3d f0 f4 06 3e
       0.088841416 0.17656688 0.062068164 0.13179374
000030 fd 71 76 3d 4f ea 2e 3e 5b 5e c6 bc 66 83 4a bd
       0.0601673 0.17081569 -0.024214914 -0.049441718
000040 41 95 20 be a5 da 06 3e b5 6b 1e 3d c9 f9 02 3d
       -0.15681936 0.13169344 0.038676936 0.031976495
000050 1b cc b3 3d 71 db e2 3c 14 b7 e6 3d bf 8f ea bd
       0.087791644 0.027692528 0.11265388 -0.11453199
000060 92 15 20 be 9d 10 16 be 74 cb 34 3b 33 f9 b5 3c
       -0.15633228 -0.14654775 0.0027587088 0.022213554
000070 4f 4d 02 3d 29 fb 93 bd 71 54 23 be 65 89 11 be
       0.03181201 -0.072256394 -0.1595018 -0.14212568
000080 b2 5a ee bd 01 ed 02 3e 69 c0 a5 bc 23 8f 5a 3d
       -0.116383925 0.12785722 -0.02023335 0.053359162
000090 19 05 9f 3d 03 af 1b 3e 36 0e 96 3d 1c 46 df 3d
       0.07764644 0.1520348 0.07326929 0.10902044
0000a0 67 33 c6 3b a7 06 1c be e9 86 0e be 67 ff 40 3b
       0.006048608 -0.15236913 -0.13918652 0.0029449107
0000b0 8f 13 aa 3d b0 d4 07 be 37 f9 9b bc 41 49 ca 3d
       0.08304512 -0.13264728 -0.019039733 0.09877253
0000c0 2f c1 08 3e c8 24 00 bc d5 3e 94 bd 1a e4 d6 3c
       0.13354944 -0.007821269 -0.07238547 0.026231814
0000d0 43 25 e9 bd d1 00 1c 3d 5d 59 2a be cb 1b 67 3d
       -0.1138406 0.038086716 -0.16635652 0.05642299
0000e0 6f e8 cd bd 13 86 c9 3d 1f 6b 86 3d 2f fe 35 bd
       -0.10054099 0.09840026 0.065634005 -0.04443186
0000f0 74 5c ed 3d 12 45 29 be c2 9d f7 3d 86 5a b7 bd
       0.115899 -0.16530254 0.12090637 -0.08952813
000100 f7 0c 5f 3d b8 ee 06 3e db 13 2a 3e 61 3c 15 be
       0.054455724 0.13177001 0.16609137 -0.14573814
000110 4a 19 ef bb 8d 8b 79 3d f5 e6 93 bd d2 25 a5 bd
       -0.007296716 0.0609241 -0.07221786 -0.08063854
000120 63 e2 fa 3d 2e 8d 0b be be 33 0a be 21 02 2a be
       0.12250211 -0.13628075 -0.134963 -0.16602375
000130 91 fd 03 3d e1 43 d5 3d 44 ae 2d 3e de 1b 1c 3e
       0.03222424 0.104133375 0.16961008 0.15245005
000140 d6 c7 77 bd 82 2e f6 bc 20 19 0a be e8 00 c3 3c
       -0.060493313 -0.030051474 -0.13486147 0.023804143
000150 2e 34 e2 bd e1 25 18 3e de 3e 2d be 7d 2f 2a 3e
       -0.11045109 0.148582 -0.16918513 0.16619678
000160 40 b8 30 be a6 c1 02 bd 51 9a ce bd d9 80 8f 3d
       -0.17257786 -0.03192296 -0.10088027 0.070069976
000170 fb 8a ca bd b7 62 02 be d0 b7 c9 bd 6c bd 08 3e
       -0.0988979 -0.12732969 -0.098495126 0.13353509
000180 ed 39 2e 3e e3 4d 15 be 11 ad 01 3d 89 44 8c bd
       0.17014284 -0.14580493 0.03165919 -0.068490095
000190 19 6d 2c 3e 12 48 26 be ac 3d 11 3d c4 83 94 3d
       0.16838492 -0.1623843 0.035459206 0.07251695
0001a0 4b 88 1e be 82 6a 83 bb cc db 60 bd 15 49 e5 bd
       -0.15481679 -0.0040104995 -0.054897115 -0.1119558
0001b0 46 ba e6 bd b5 ba 6f bc 28 9f e2 bd 08 9e 99 3d
       -0.112659976 -0.014631917 -0.11065513 0.07500845
0001c0 5f 92 04 be e1 f5 14 3c f5 f7 79 bd c8 99 51 bd
       -0.12946461 0.009091825 -0.061027486 -0.051172048
0001d0 c0 b8 21 3e 2c 4e c4 bd c6 8f 2c be d4 48 1f be
       0.15793133 -0.095852226 -0.1685172 -0.15555125
0001e0 fd 62 0d 3e 09 7b da 3c 12 2f 47 bd 15 85 9f bd
       0.13807292 0.026669996 -0.048628874 -0.07789055
0001f0 fb ec f6 bd aa 31 8e bd 08 8f 15 3d 36 32 89 bd
       -0.12056919 -0.069430664 0.03651336 -0.0669903
000200 09 97 30 3e 64 bd 28 bd a7 33 0c 3d e8 a6 a8 3d
       0.17245115 -0.041196242 0.034228947 0.0823496
000210 70 e2 00 3d 52 bd ef bd aa 60 9f bd f2 6d fd bd
       0.031465948 -0.11706032 -0.07782109 -0.12374486
000220 02 83 a5 bd f6 bf a9 3a a7 be ed bd 2f dc 93 3d
       -0.080816284 0.0012950886 -0.1160863 0.07219731
000230 fe f6 b9 3d 72 4e c4 3d 66 35 1e 3e 8f c9 78 bd
       0.09080313 0.09585275 0.15450057 -0.060739096
000240 9b 06 65 3b e5 38 ce bd 83 cf 08 3e b3 52 89 bc
       0.0034946564 -0.100694455 0.1336041 -0.016763067
000250 12 3f 33 3e f9 7a 04 3d e3 ee 1e bd 77 ec 08 be
       0.17504528 0.03234384 -0.03880204 -0.13371454
000260 25 c9 1c be 7f 2b 1a 3d 23 df d7 bd c4 c0 43 3d
       -0.15311106 0.037639137 -0.10540607 0.047791258
000270 5e 7b e8 bc ad 77 c2 bd 25 bb e0 3d 5c 63 e9 bd
       -0.028379139 -0.094954826 0.10973195 -0.113959044
000280 77 d3 e1 3c bb a9 e0 bd 42 ad 29 3e d8 c2 f8 bd
       0.027566655 -0.109698735 0.16569999 -0.121465385
000290 a3 f2 06 3d 3a 9a 0c 3e 89 b3 e2 bd b7 6f 8b 3d
       0.03294624 0.13730708 -0.110694 0.06808417
0002a0 a8 47 18 be 26 1c 13 3e e7 18 12 3e 97 73 e6 bd
       -0.14871085 0.14366207 0.14267312 -0.11252516
0002b0 39 35 fe bc 07 bd ed 3d 19 18 20 3e da 32 11 be
       -0.031031238 0.1160832 0.15634193 -0.14179555
0002c0 49 c1 ba 3d a8 58 c6 bc e6 54 b7 bd 7c 00 03 be
       0.091188975 -0.024212196 -0.0895174 -0.12793154
0002d0 52 bb 36 3d 91 fb 90 3d 92 50 e0 bd b2 18 2b 3e
       0.044612236 0.070792325 -0.109528676 0.1670864
0002e0 f9 62 6b 3d 85 62 89 bc 8a 9c e1 bd a9 50 6b bc
       0.057467435 -0.01677061 -0.110161856 -0.014362493
0002f0 44 fb e0 3b 70 1e fd bb 68 46 09 be ba 4c 9e 3d
       0.0068658907 -0.0077245757 -0.13405764 0.07729478
000300 2a 2c 07 3e 15 8e ea bd 63 f0 94 bc 16 92 b7 3b
       0.13200441 -0.11452881 -0.018181032 0.0056021316
000310 19 43 28 3d c4 76 7b 3d 12 8d 47 bc cb 35 1e 3e
       0.041079614 0.06139256 -0.01217963 0.15450208
000320 2a de 92 3d b0 11 ee 3d 86 e8 b2 3d b8 4a e8 3b
       0.07171281 0.116244674 0.087357566 0.0070889853
000330 9f 88 f8 bb 9a ae b2 bc 69 53 fd bd fe de c3 bd
       -0.007584646 -0.021811772 -0.12369425 -0.09564017
000340 3b 82 21 be 87 24 24 be 01 f9 1e 3d e5 73 64 bd
       -0.15772335 -0.16029559 0.038811687 -0.05577459
000350 aa fa 01 be 5d 59 29 3e f9 3b 54 38 65 2f 8b 3d
       -0.12693277 0.16537996 5.0600593e-05 0.06796149
000360 dc 4e f5 3d f8 b4 01 bc 68 58 c0 bc 25 2c f1 bd
       0.11977932 -0.0079166815 -0.023479655 -0.11775998
000370 8f 77 b1 3d 70 b4 51 3d c4 68 da bb 3b 28 5a 3d
       0.08665382 0.05119747 -0.006665321 0.053261023
000380 30 b4 bd bd 54 72 1a 3e 54 a5 98 bd a5 10 8e 3d
       -0.09262884 0.15082675 -0.07453409 0.069367684
000390 34 a1 97 3d 6d 4c 2b bd f1 f1 20 be 1c f3 82 bd
       0.07403794 -0.041820932 -0.15717293 -0.06394026
0003a0 65 22 16 be 20 c0 b6 bd c6 2d 50 3d e4 e3 fd bd
       -0.14661558 -0.08923364 0.050824903 -0.12396982
0003b0 b3 8a dd 3d 3e 08 e4 3d c1 45 a9 bd 74 4e 96 3d
       0.108174704 0.111343846 -0.082652576 0.073391825
0003c0 31 6c 0d 3e 17 59 1c 3e 91 06 b4 bd f6 ad 85 3d
       0.13810803 0.1526836 -0.08790315 0.06527321
0003d0 b0 f8 76 bd 45 97 af bd 4e 1a 9e bd ce 2b 07 3e
       -0.06029576 -0.08573774 -0.07719861 0.13200304
0003e0 a9 45 b2 3d 34 db 68 3c a0 d2 54 bd d4 a4 cf bb
       0.08704693 0.014212418 -0.05195868 -0.0063367877
0003f0 62 22 a1 3b de d3 19 3e 1d f9 bb 3d 99 4a aa 3d
       0.004917429 0.15022227 0.09178374 0.083150096

encoder.attn_layers.0.attention.query_projection.bias f4 [32]
000000 07 ad 3e bd 86 10 91 3d a5 7c e5 bd 39 9c 98 bb
       -0.04655173 0.0708323 -0.11205415 -0.004657295
000010 a7 ef d8 3c 96 ee 1d 3e c0 04 a1 bd 72 6e 12 be
       0.026481463 0.15423045 -0.07862234 -0.14299944
000020 c8 fb 14 bd b3 28 8c bd 2c 31 be bd d6 33 2d bd
       -0.03637293 -0.068437 -0.092867225 -0.042285763
000030 4b a8 ad bd 04 20 a6 3d 99 fb 2d bd 75 f2 90 3d
       -0.08479365 0.08111575 -0.04247627 0.07077495
000040 d5 01 b6 3d 60 15 4f 3d e4 f2 bf bd d1 61 8b bd
       0.08887068 0.050557494 -0.093724996 -0.068057664
000050 20 8c 3f 3a a3 1e 93 bc 2d 7b 2f 3e 50 3a 29 3e
       0.0007306952 -0.017958945 0.17136832 0.1652615
000060 46 a6 1c be dc 8a 26 3c ec 0b c2 bd 69 75 e2 3d
       -0.15297803 0.010164943 -0.0947493 0.110575505
000070 1f 67 06 be 4d 10 ef bc 1b f8 f6 3d 69 6d f8 bd
       -0.13125275 -0.029182578 0.12059041 -0.12130243

encoder.attn_layers.0.attention.key_projection.weight f4 [32, 32]
000000 01 54 f0 3d 56 94 ee bd a1 65 2d 3e cd 0e 36 3d
       0.117347725 -0.116493866 0.169333 0.04444771
000010 e1 37 e4 bc 4d 09 46 3c b3 ad 91 3d 67 ea c8 bd
       -0.027858676 0.012087178 0.071132086 -0.09810334
000020 f6 bd 25 3e 3d 23 d3 3d 04 e8 0d be 16 95 56 3d
       0.16185746 0.103094555 -0.13858038 0.052388273
000030 28 ef 2c 3e b2 53 72 bd c3 3a 2f 3e 97 83 c7 bd
       0.16888106 -0.05916185 0.1711226 -0.09741896
000040 94 f2 1a be 29 47 16 be 29 c9 95 3d 95 3f 21 3e
       -0.15131599 -0.14675583 0.07313759 0.15746911
000050 ed 80 de 3d 8a cc 56 bc 52 44 02 3e 1e 73 52 3d
       0.108644344 -0.013110289 0.12721375 0.051379316
000060 3b 85 f7 bd c5 30 45 3d e2 23 79 bc 65 93 d5 3d
       -0.120859586 0.048142213 -0.015206309 0.10428504
000070 c5 69 2e 3e 40 26 c5 bc 06 60 9e 3d a5 d3 22 be
       0.17032535 -0.02406609 0.07733159 -0.15901048
000080 a4 5c 0e bd a6 7a ad bd ed 50 19 3a be 20 04 be
       -0.034756318 -0.08470659 0.00058485457 -0.12903115
000090 7d 65 3b 3d 50 fe fd 3d 0a 07 14 be a8 cc 20 3e
       0.045751084 0.12402022 -0.1445581 0.1570307
0000a0 08 b4 9a 3d ab 2d b3 bd 4f d3 0c 3c 87 88 ee bd
       0.075538695 -0.08748945 0.008595302 -0.11647134
0000b0 b6 a7 2f 3e 83 a3 03 be 85 1b 29 3e 13 fe a7 bd
       0.1715382 -0.12855344 0.16514404 -0.08202758
0000c0 10 45 70 3d 4c ac d9 bd 27 ee 94 3c b8 76 95 3d
       0.058659613 -0.10628566 0.018179966 0.072980344
0000d0 c5 b9 15 bb 87 ff 8b 3d 40 1d 96 bd 69 1d c7 bd
       -0.0022846323 0.06835847 -0.07329798 -0.097224064
0000e0 c3 e2 15 be d3 06 0f be a4 c7 5a bd 85 55 b6 3c
       -0.14637284 -0.13967447 -0.05341305 0.022257576
0000f0 d9 a4 70 bc 28 78 2c bd 1d a9 10 be c0 55 7e bc
       -0.01468774 -0.042106777 -0.14127012 -0.015523374
000100 a7 69 05 3e 4e 45 87 bd 4a 5a ff bd d7 54 2a 3d
       0.13028584 -0.06605016 -0.12468393 0.041584816
000110 41 0d e2 bd fb 57 10 bd 4a 0c 14 3d 21 2f 5e 3c
       -0.11037684 -0.035240155 0.036144532 0.013561041
000120 f7 41 1f 3e 30 2c aa 3d f5 43 1c be f2 08 e4 3c
       0.15552507 0.08309209 -0.15260299 0.027836297
000130 ae 12 21 3c 05 d9 42 3d 19 4f d3 3d e9 87 e4 3d
       0.009831114 0.047570247 0.10317821 0.11158735
000140 f3 ed c2 bd b7 8a d7 3d 60 b3 71 3d c8 9b 91 3a
       -0.095180415 0.10524505 0.059008956 0.0011109049
000150 4a e4 ac 3d 92 85 f7 3d 02 46 ff bd bc 99 cc bd
       0.0844198 0.120860234 -0.12464525 -0.0999026
000160 54 9b c2 3d f8 38 19 3e ca 72 96 bd eb 99 d7 bd
       0.09502283 0.14963138 -0.07346113 -0.105274044
000170 98 a1 1a be 00 2d 55 bd 66 4a 42 bc f9 d8 cd bd
       -0.15100706 -0.05204487 -0.011858558 -0.1005115
000180 0f f8 08 bd 31 5c 23 bd a3 04 bf 3c 26 df d5 3d
       -0.033439692 -0.039882842 0.02331764 0.10442953
000190 87 f4 fb 3d 53 3b 9d 3d 7f c6 15 be 20 05 9e 3d
       0.12302499 0.07677331 -0.14626502 0.07715821
0001a0 82 87 a0 3c 56 18 0c 3e ef 61 36 bc fb 94 f1 3c
       0.019595865 0.13681158 -0.011131748 0.029489985
0001b0 10 79 12 be f6 4f 98 bd 40 dc d0 bd 9c dc e6 bd
       -0.14303994 -0.07437126 -0.10198259 -0.11272547
0001c0 bb d7 fa 3c bb 70 51 bd e6 2c 05 3e 1f b3 09 3d
       0.030620446 -0.0511329 0.13005409 0.03361809
0001d0 6a cb 1b be ef dd 0a bb 7b 1f 01 be e8 8d 05 be
       -0.15214315 -0.0021189412 -0.12609665 -0.13042414
0001e0 89 b6 28 bd de a2 ad bc 69 c0 22 bc 0a 79 02 be
       -0.041189704 -0.021195825 -0.0099335695 -0.12741485
0001f0 83 55 00 be 98 2d 34 3d 91 e5 c9 bd cf c0 c6 bd
       -0.1253262 0.043988794 -0.098582394 -0.09704744
000200 0d 6a f6 bd cd c5 39 be 2f 5a 5c bc 18 3a c6 3d
       -0.12031946 -0.18141861 -0.013449236 0.09679049
000210 2c 4b 92 bd 66 30 00 bd 1d b6 8b bd 99 21 4f bc
       -0.07143244 -0.031296156 -0.06821845 -0.012642288
000220 70 10 21 be 41 e4 2b be 39 13 f4 bd e7 ec 66 bc
       -0.15728927 -0.1678629 -0.11917729 -0.014094568
000230 55 ce eb bd 8c b5 37 3d 37 64 2a bd 24 23 12 3e
       -0.11513964 0.04485087 -0.04159948 0.14271218
000240 64 ed 97 3d a1 8e 35 3d f8 83 82 bd ea 90 1c be
       0.074183255 0.044325475 -0.06372827 -0.15289655
000250 d8 e4 11 be 6a 9b 20 be 54 33 e4 3d 35 5f 9a bd
       -0.14247453 -0.15684286 0.111426026 -0.075376906
000260 4e 3e 1d 3d 62 98 11 3e 4a b8 10 3e e1 a2 5f 3d
       0.038389497 0.14218286 0.141328 0.054598693
000270 a1 62 d9 3d a7 2a 1d be f2 ae 4d bd f3 90 15 be
       0.10614515 -0.15348302 -0.05021567 -0.14606075
000280 6a 25 d2 3d 83 c6 7b bc 04 98 08 3e 01 2c 87 3d
       0.102610424 -0.015367153 0.1333924 0.0660019
000290 c2 6f 9f 3d 8d b5 2f be cb b1 9d 3d 78 e2 b6 3d
       0.07784988 -0.171591 0.07699927 0.08929914
0002a0 00 e7 33 be 02 aa 06 be d2 09 67 bd 11 57 65 bc
       -0.17568588 -0.1315079 -0.05640585 -0.013997809
0002b0 61 e0 00 3e b0 5e fc bd 14 f0 33 be 6c 05 8d bd
       0.12585594 -0.12322748 -0.17572051 -0.068858
0002c0 d3 b2 78 bd 1b 75 04 be 61 46 31 bd 9f a4 8c 3d
       -0.060717415 -0.12935297 -0.04328001 0.068673365
0002d0 66 30 04 3e 34 ba c4 bd 73 eb 08 bd b9 b3 be bd
       0.12909088 -0.09605828 -0.033427667 -0.09311623
0002e0 01 29 03 be f7 75 23 3e 96 fa 76 bd 9e b3 2c be
       -0.1280861 0.15962969 -0.06029757 -0.16865394
0002f0 8a 46 a0 3d c4 44 29 bd e6 14 ad bd aa e6 b4 bd
       0.07825954 -0.041325346 -0.08451252 -0.08833058
000300 c8 06 20 be 78 f2 e2 bd 55 f7 33 be 76 57 af 3d
       -0.15627587 -0.110814035 -0.17574818 0.08561604
000310 51 50 c2 3d 29 dc 02 be ad 80 6e 3d 56 40 20 3e
       0.094879754 -0.12779297 0.058228184 0.15649542
000320 ed 7b c6 bd 0d a4 25 be b5 ca 22 be 35 a6 33 bd
       -0.09691606 -0.16175862 -0.15897639 -0.04385968
000330 bb 87 2a 3e 09 ca 10 bd fb 9e 38 3e ad 37 15 3e
       0.1665334 -0.035348926 0.18029396 0.1457202
000340 ed d7 70 3d 90 e1 12 3d 81 3e 6b bb 0c f6 48 3d
       0.058799673 0.035859644 -0.003589541 0.049062774
000350 71 2f 0f be ad 62 20 be d9 4f 05 3d 6a d9 94 bd
       -0.13982941 -0.15662642 0.03254685 -0.07268031
000360 2e 7d e9 bd 65 43 1f bd f1 c6 e4 3d 71 d5 01 3e
       -0.11400829 -0.03888263 0.111707576 0.12679078
000370 08 34 ae 3d 7b 3e a8 3c f2 b7 b3 bd be 36 34 3e
       0.08506018 0.020537606 -0.08775319 0.17599007
000380 28 55 c0 3d f9 84 17 bd b9 d7 c4 ba ee b3 bc ba
       0.09391242 -0.036992047 -0.0015017904 -0.0014396885
000390 bf 04 04 bd 0b e0 26 3e 63 75 c6 3d 6c d7 36 3e
       -0.03223109 0.16296403 0.096903585 0.17855614
0003a0 79 de 18 bd 4c b8 56 3c 3a a8 79 3d 21 91 ea bd
       -0.03732154 0.013105463 0.06095145 -0.114534624
0003b0 08 39 27 3e 5d c8 ba bd 74 6b 60 bd 88 c7 03 bd
       0.1633035 -0.091202475 -0.054789975 -0.03217271
0003c0 e2 52 f9 bc a8 ae 1d bd 7e ac 6c bd 1f 84 d7 3d
       -0.03043503 -0.038496643 -0.05778169 0.10523247
0003d0 9a 4a 69 3d 82 e3 ea 3d 7f e2 73 3d 55 95 0f be
       0.05695591 0.11469175 0.059542175 -0.1402181
0003e0 7f c1 37 bd 65 c5 0a 3d 1d c3 ef bd 68 ac fb bd
       -0.044862267 0.033879656 -0.11707137 -0.12288743
0003f0 a4 f9 28 3e ab 2b 09 3e 15 72 9e bd 42 d0 f2 3d
       0.1650148 0.13395564 -0.07736603 0.11856128

encoder.attn_layers.0.attention.key_projection.bias f4 [32]
000000 d0 d6 5b bd 09 de 17 3d 63 3c 32 be 40 82 97 bd
       -0.053671658 0.037076984 -0.17405848 -0.0739789
000010 71 5b 18 be aa 04 49 3d 58 29 5d 3d 97 e6 87 bd
       -0.14878632 0.049076714 0.053994507 -0.066357784
000020 53 43 e2 3d 2e 2f 25 be aa d4 36 bc 6d 6a 1e be
       0.11047997 -0.16131279 -0.0111591015 -0.15470286
000030 b3 8f 27 3d 93 0f 9a 3d b7 2b 1a 3e 38 c3 d6 3b
       0.040908527 0.07522502 0.15055738 0.0065540336
000040 77 c7 18 bd b7 8d 05 be ca 5c ec 3c ef 52 f1 bd
       -0.0372996 -0.13042341 0.028852839 -0.117833965
000050 5f d0 87 3d a5 b5 13 be 70 0b 75 3d e7 22 2d 3e
       0.066315405 -0.1442476 0.05982536 0.16907845
000060 02 c9 8f bc ee 1d 08 3e 34 ca 1c 3d 5a 01 17 bd
       -0.017551903 0.13292667 0.038278773 -0.036866523
000070 fa 1b 67 bd 79 3e f8 bd ae 67 10 3e 2e 64 11 3e
       -0.056423165 -0.12121291 0.1410205 0.14198372

encoder.attn_layers.0.attention.value_projection.weight f4 [32, 32]
000000 61 e5 ca bc 26 56 a2 bb 6a 5f d0 3d 5a 68 28 be
       -0.02476758 -0.0049541174 0.10174449 -0.16446057
000010 cf 8e b9 bd c7 f9 eb bd 87 d3 2e be 7a 60 24 be
       -0.09060442 -0.115222506 -0.17072879 -0.16052428
000020 35 33 38 3b 9d 6e 5f 3d 5d dc 5d bc f2 ab 02 be
       0.0028106694 0.05454885 -0.013541308 -0.12760904
000030 a4 50 2f be 3a 18 0d be 52 65 27 be 60 c9 20 be
       -0.17120606 -0.13778773 -0.16347244 -0.15701818
000040 d6 65 c7 bc 4d 50 d6 3d f3 00 1a be 2f fd d1 bd
       -0.024340551 0.10464535 -0.15039425 -0.10253369
000050 e5 a3 24 3e 62 ac 05 be 14 f7 b8 3d 50 2d 8c bc
       0.16078146 -0.1305404 0.090315014 -0.01711145
000060 09 e8 95 3d e9 3b 08 3e 7d 47 36 3e 8a 4b 08 3e
       0.07319648 0.13304104 0.17800708 0.13310066
000070 df 9d a0 bd 9b 37 00 be b8 ce bd bd ad ef 29 3d
       -0.078426115 -0.12521212 -0.09267944 0.04148834
000080 96 c6 d4 bc f7 88 f5 3d da ad d3 bd cb 68 29 bc
       -0.0259736 0.119890146 -0.10335894 -0.010339926
000090 3e 40 aa 3d cd 80 8f 3d cf d0 01 3e 1e 74 0c be
       0.083130345 0.07006989 0.1267731 -0.1371617
0000a0 8f d7 10 3e 4e 70 d7 bd 06 31 12 3b 79 a9 f8 bd
       0.14144729 -0.10519467 0.0022307052 -0.12141699
0000b0 3b 77 19 3e f2 b8 10 3e 63 c9 7f bd 84 d9 b7 bd
       0.14986889 0.14133051 -0.062447917 -0.08977035
0000c0 2d 56 09 be 26 4c 13 be 3f 4e 88 3d 74 72 0c bd
       -0.1341178 -0.14384517 0.06655549 -0.03428884
0000d0 59 da 27 be ba 2f f2 3c b4 d8 1c be 5a 41 07 3c
       -0.16391887 0.029563773 -0.1531704 0.008255327
0000e0 e1 97 ee 3d 0f f3 a7 3c 2a 90 cf 3d 97 99 05 3e
       0.11650062 0.020501642 0.10134919 0.13046871
0000f0 ba af 0f 3e 9c 2c 6f 3d 67 f3 71 bd ff 11 29 3e
       0.14031878 0.058392152 -0.059070017 0.16510771
000100 df 7a 26 be 75 2d 9d bd e0 81 08 be d5 f8 12 be
       -0.16257809 -0.07674686 -0.13330793 -0.14352734
000110 90 f6 1a 3c bd 3d 2e 3d d3 03 05 be de e6 5f bc
       0.009458199 0.042539347 -0.1298974 -0.013665883
000120 83 76 61 3d b1 39 6e bd 2f de 07 3e e5 fc b5 3d
       0.055044662 -0.058160488 0.1326835 0.088861264
000130 ef ce 7b 3d 8c 37 18 bd d4 09 ed 3d b4 4e 23 3e
       0.061476644 -0.03716235 0.1157414 0.15947992
000140 f1 88 09 be 21 1d 05 be eb 85 f1 3b b2 f6 6e bd
       -0.13431145 -0.12999393 0.0073707006 -0.058340736
000150 89 63 21 be 84 e5 bf 3d 8e b4 a2 bd 5f d6 c0 3d
       -0.15760626 0.093699485 -0.07944594 0.09415888
000160 31 95 64 bd 73 99 28 be 1a ca 8a 3c 17 4c 46 3c
       -0.055806343 -0.16464786 0.016942073 0.012103102
000170 cf e5 9d 3c 5a ab 00 bd e9 8a 31 be 57 39 e6 bd
       0.01927462 -0.031413414 -0.17338146 -0.112414055
000180 1d 18 a5 3d 62 40 07 3a 09 e9 85 bd d0 b3 29 3e
       0.0806124 0.0005159435 -0.065385886 0.165725
000190 1b bc 12 bd ea 15 67 3c 58 61 8a 3d c0 63 0c 3d
       -0.035823923 0.014104346 0.06756848 0.034274817
0001a0 f6 36 9f bd 6e 8e b2 3c 5d 62 4a bd 3f 9b 97 bc
       -0.07774155 0.021796431 -0.049410213 -0.018506644
0001b0 a9 9a e9 3d 89 8a d6 3d 16 b3 08 3e 17 ff 05 be
       0.11406452 0.10475642 0.13349566 -0.1308559
0001c0 fc 76 b8 3c 5a 95 b9 bd 1f 5e 6d bd a1 f7 78 3d
       0.022517674 -0.0906169 -0.05795109 0.060783032
0001d0 f6 19 29 3e 13 7d 04 3c 2f 98 1c 3e dc 4f b8 bc
       0.1651381 0.008086461 0.15292428 -0.022499017
0001e0 37 cb 38 3e 52 99 1c 3e 5d c7 b8 bd 01 bc 5f bb
       0.1804627 0.15292862 -0.090224005 -0.0034139159
0001f0 cf 67 9b bd 12 bc 2f be 61 37 1f 3e 14 01 0e 3e
       -0.07588159 -0.17161587 0.15548469 0.13867599
000200 44 88 83 bd 33 fa 63 3d 6e 28 2a ba 74 19 68 bb
       -0.06422475 0.05565853 -0.000649101 -0.0035415562
000210 fc 45 e8 bd 0a d5 35 3e 48 ff 1f be 73 26 ae 3d
       -0.113414735 0.17757049 -0.15624726 0.08503427
000220 87 d7 23 3e 54 da 37 bd 0b 2e ac bd 52 d9 54 3d
       0.16000186 -0.04488595 -0.084072195 0.051965065
000230 5e 85 d5 3c b8 38 09 3c 28 cb 08 3d 8b 81 63 3d
       0.026064571 0.008375339 0.03339687 0.055543464
000240 83 2c e4 3c c5 75 0c 3e c9 18 e6 bd 44 c0 0b be
       0.027853256 0.137168 -0.11235196 -0.13647562
000250 93 07 ed bd 36 4d 19 bd 95 3b 05 bc e7 ab b3 3c
       -0.1157371 -0.03742715 -0.008131881 0.021932555
000260 0c fe cb bc 91 a9 85 3d 75 9f bc 3c f8 8e 17 be
       -0.024901412 0.06526483 0.023025254 -0.14800632
000270 41 33 eb 3a 14 09 1f be a8 c3 1c be 4d 87 24 bd
       0.0017944352 -0.15530807 -0.15309012 -0.040168095
000280 e1 de ff 3d 46 22 c6 3d 6b 86 de bc cb 93 f7 bb
       0.12493683 0.09674506 -0.027163705 -0.00755546
000290 02 30 66 3d f1 22 0a 3a ff 76 a6 3d 8d 92 46 bd
       0.056198128 0.0005269489 0.081281655 -0.048479605
0002a0 f4 0a 21 3e 40 52 13 3d ef b5 a5 3d 27 e6 97 bd
       0.15726835 0.03596711 0.08091342 -0.07416945
0002b0 05 d7 07 be 16 2f 32 be f0 ed 23 be 99 05 cd bd
       -0.13265617 -0.17400774 -0.16008735 -0.10010833
0002c0 07 22 29 3d 20 9e f9 bd fe 6a 0a 3d df 29 e6 bd
       0.041292217 -0.12188363 0.033793442 -0.11238455
0002d0 70 bd 32 3d 28 3c 78 3c 92 65 85 3d bb 64 ef 3d
       0.043637693 0.015151061 0.065135136 0.11689135
0002e0 5a 5c 04 be 91 37 21 be 1b e9 a3 bc 73 06 f2 bd
       -0.12925854 -0.15743853 -0.020008614 -0.11817636
0002f0 ad 10 ad bc 31 51 d2 3c 96 7c 00 be 41 01 ca 3c
       -0.021126116 0.02567348 -0.12547526 0.024658801
000300 dd 2c 89 bd 99 95 9e 3d d4 bb 8a 3c b6 01 f5 bd
       -0.0669801 0.07743377 0.016935267 -0.11963217
000310 a4 c3 d5 bd b0 aa 2d be 44 21 8b 3d 51 da b3 bd
       -0.10437706 -0.16959643 0.06793454 -0.08781875
000320 bb c7 a0 bd 3b e7 19 be cd e3 b0 bd 95 66 d1 3d
       -0.078505956 -0.15029614 -0.086371996 0.10224644
000330 4e db 48 3d d3 72 8f bd c9 5a e8 3c fc 42 be 3d
       0.04903727 -0.07004323 0.028363602 0.0929012
000340 50 65 b2 3d 64 b2 d9 3d 84 ae 8e 3d e5 70 aa bd
       0.0871073 0.106297284 0.0696688 -0.08322314
000350 bd 5b 50 3c 12 0a 19 3e 18 de ed bd 6f f6 3c 3c
       0.012717185 0.14945248 -0.11614627 0.011533364
000360 fb 3d ae 3c e8 9a 25 be 92 df 21 3e 40 fd f4 3d
       0.021269789 -0.16172373 0.15807942 0.11962366
000370 9d db a0 3d f8 7c d4 3d dc 44 2a 3e 6f 91 84 3d
       0.07854388 0.103753984 0.1662783 0.06473052
000380 f7 f7 8d 3d 57 04 27 bd 1a 12 b8 3c 37 b9 16 bc
       0.06932061 -0.040775623 0.022469569 -0.009199432
000390 9c e4 18 3e 28 37 f3 bd 3d 67 1a be 50 00 2f 3e
       0.14930958 -0.118757546 -0.15078445 0.17089963
0003a0 71 5c f6 3c 15 e9 92 3d 52 b6 d8 bd 81 27 59 3d
       0.030073376 0.07173363 -0.1058165 0.05301619
0003b0 96 35 13 3d 62 ec 0a 3e d8 70 c9 3d a6 b0 18 3c
       0.035939775 0.13566735 0.09835976 0.00931946
0003c0 56 68 87 bd 2f 7e 2d be eb 0c 08 be bd 1e 08 3e
       -0.066116974 -0.16942666 -0.13286178 0.13292976
0003d0 c5 43 2d 3e e7 f3 2f be 8e 97 2c be 15 f2 34 3e
       0.16920383 -0.17182885 -0.16854689 0.17670472
0003e0 97 fd 7e 3d 79 d2 a7 3d 0a 62 35 3e 30 5b 04 3e
       0.06225356 0.08194441 0.1771318 0.1292541
0003f0 26 1c a1 3d 96 74 d8 3c f5 62 b0 3c fa 06 c3 3d
       0.07866697 0.02642278 0.021531561 0.09522815

encoder.attn_layers.0.attention.value_projection.bias f4 [32]
000000 e4 90 15 be 4f 75 5b bd bb 57 c1 3c 02 dc ca bd
       -0.14606053 -0.05357867 0.023601403 -0.099052444
000010 70 c0 62 3d d9 da ff bd 7e e0 ae ba a2 c4 31 3e
       0.055359304 -0.12492914 -0.001334205 0.17360166
000020 41 09 34 be 98 fc 37 3e c1 fc 7d bd a7 a1 ab 3d
       -0.17581655 0.1796745 -0.062008623 0.08380442
000030 dc 4e e7 bd df 08 84 3d d9 fa f7 bd 55 c2 ee 3d
       -0.11294338 0.064470045 -0.12108392 0.1165816
000040 d7 ff db bd ca 55 87 bd 75 8a 29 be cb ec bf bd
       -0.10742157 -0.0660816 -0.16556723 -0.093713365
000050 84 00 c5 3d 7b 76 a4 bc 03 93 e8 3d dd 69 02 3e
       0.09619239 -0.020076027 0.11356165 0.12735696
000060 13 15 30 be a4 d1 a8 3b 8b f4 f4 bd 08 31 d7 bd
       -0.17195539 0.0051519442 -0.11960705 -0.10507399
000070 cb 6c a0 3d 34 75 fa bc b7 ad a3 bc 61 b6 06 be
       0.078332506 -0.030573465 -0.019980295 -0.1315551

encoder.attn_layers.0.attention.out_projection.weight f4 [32, 32]
000000 6c 1c 08 ba ae 29 22 3e 31 d1 2a 3e 67 92 ed bd
       -0.00051922235 0.15836212 0.16681363 -0.1160019
000010 f1 a6 14 3b e0 16 02 be 4d 5d 45 bd 69 23 bb bd
       0.0022682513 -0.12704039 -0.04818468 -0.09137613
000020 42 d9 eb bc 6a 14 3c 3d bc 84 1a 3e fd df d1 bc
       -0.02879012 0.045917906 0.15089697 -0.025619501
000030 94 fe 9d bd 05 84 aa 3d 9b cb f5 bd bf af 52 bd
       -0.077145725 0.08325962 -0.12001725 -0.051437136
000040 dd 00 fc 3d 23 bf 1a be 02 51 8a 3c 4d 4e 1c 3e
       0.12304852 -0.15111975 0.01688433 0.15264244
000050 1f ce 5e 3d be 95 68 3d 20 05 1f 3c 62 ac aa bc
       0.05439579 0.05678343 0.009705812 -0.020834152
000060 ed 17 fc 3c 67 b9 6e 3a 60 cf 51 bd 6c e9 bc 3b
       0.030773127 0.00091066066 -0.05122316 0.0057651307
000070 66 c4 f0 3d fa 3a c3 bd 47 b9 49 3d 65 a8 0c 3e
       0.1175621 -0.09532733 0.04924896 0.13736112
000080 ec d7 e9 bd 1d 0d 9f bc 98 86 ac 3d 17 c9 37 3d
       -0.11418137 -0.019415433 0.08424109 0.04486951
000090 35 69 05 bd 1a e9 24 3e 7d 40 10 be b2 50 94 bc
       -0.032571036 0.16104546 -0.140871 -0.018104885
0000a0 9e 71 ef 3d ca 64 25 be 0d 08 06 3e fa a0 2a be
       0.11691593 -0.16151729 0.13089009 -0.1666297
0000b0 65 b6 02 bd 40 c3 f9 bc 9a 45 5b bd 27 be c9 bd
       -0.031912226 -0.03048861 -0.053533174 -0.09850722
0000c0 b9 83 e7 3d e0 96 8d 3c b5 3a a6 bc 8b 60 31 bc
       0.11304421 0.017283857 -0.020291666 -0.01082624
0000d0 4a aa 58 3d 9e 02 cd 3d fe a8 9f bd 3c a2 30 3d
       0.052896775 0.10010265 -0.077959046 0.04312347
0000e0 f6 61 6b bd 55 ed 1d be 94 43 c8 bd af 86 aa bd
       -0.05746647 -0.15422566 -0.097785145 -0.0832647
0000f0 67 b3 ce bd dd b1 2b be b0 61 9f bd 7e 0b c6 bd
       -0.10092812 -0.16767068 -0.07782304 -0.09670161
000100 55 fa ac bc 83 74 dd 3d b3 45 f0 3d 28 82 56 bd
       -0.021115461 0.108132385 0.11732044 -0.05237022
000110 da c2 89 bc 39 a8 f9 bc ac 03 00 3e c9 33 0d be
       -0.016816545 -0.030475723 0.125014 -0.13789286
000120 cf ea c8 bc 09 7a b4 bd 39 82 fa bd cb b8 c7 3d
       -0.024526028 -0.08812339 -0.12231869 0.09752043
000130 21 d0 06 be 91 77 2d be 20 35 84 3c 96 23 f3 3d
       -0.13165332 -0.16940142 0.016138613 0.11872022
000140 ef 64 23 be 2a 0c f0 3c f0 16 c3 bd 3b 63 04 3e
       -0.15956472 0.029302675 -0.09525859 0.12928478
000150 56 1a 19 3e 69 41 80 bb 84 ea 10 be 1f 28 28 be
       0.14951453 -0.0039140475 -0.1415196 -0.16421555
000160 99 19 17 3e dd d5 c8 bd 81 4d eb 3d 8c 14 51 3d
       0.14755858 -0.09806416 0.11489392 0.051044986
000170 d3 b0 23 3e a6 0d 18 be 6f 0b 38 bd 5d 9a d8 bc
       0.15985422 -0.14848956 -0.04493278 -0.026440794
000180 ba 60 59 bd 76 df fc bc 91 f1 a9 bd 5e 7c d3 bd
       -0.05307076 -0.030868273 -0.08298028 -0.103264555
000190 62 14 1f 3d 61 37 50 3d 01 3d 1e be 30 d8 19 be
       0.038837798 0.050834063 -0.15452959 -0.15023875
0001a0 7d e3 24 bc 82 e2 e7 bd 4b 31 29 3e 6f 26 00 3e
       -0.010064003 -0.113225 0.1652271 0.12514661
0001b0 2f cd 09 bd 02 5a e4 bd fa 25 2a be 43 21 e9 bd
       -0.033642944 -0.1114998 -0.1661605 -0.11383297
0001c0 ca 3e a6 3d e3 ce 17 be 90 16 09 3e 3e 3a c9 bd
       0.08117445 -0.14825015 0.13387513 -0.09825562
0001d0 f0 73 6b 3b 30 12 a8 bd 76 77 e7 bd ae 89 24 3e
       0.0035927258 -0.08206594 -0.11302082 0.16068146
0001e0 c2 5e 1f 3e c9 f8 a6 3c 9f a7 25 be 50 44 ae bd
       0.15563491 0.020382302 -0.16177224 -0.08509123
0001f0 a7 ec 1d be 77 27 de bd 73 50 ea bd 53 cb 8e bd
       -0.15422307 -0.10847371 -0.11441126 -0.06972375
000200 57 cf ce 3d 0b 40 2a be 7a dd fb 3d ad 06 8b bd
       0.10098141 -0.16625993 0.12298103 -0.06788383
000210 90 c9 43 bc cc ad 14 3d 75 2c ac bd 53 18 79 bd
       -0.011949912 0.036298558 -0.08406917 -0.060814213
000220 5e 6c ab 3d af d6 22 be 5a 08 24 3e ff da e0 bd
       0.08370279 -0.15902208 0.16018811 -0.1097927
000230 12 86 17 3e bd c7 30 bd d4 4c 37 bd 3c 48 5f bd
       0.14797238 -0.043159235 -0.044751003 -0.054512247
000240 92 d1 26 be ab 51 58 3d 75 64 8f bd 67 ed d0 bc
       -0.16290882 0.05281226 -0.070015825 -0.025503827
000250 1e 12 ca 3d 95 eb 0c 3e 8e 83 e6 3d ce d7 86 ba
       0.09866737 0.13761742 0.11255561 -0.0010287703
000260 f7 f7 c0 bd 58 17 02 3e 88 18 df 3d 5a 57 7d bd
       -0.094222955 0.12704217 0.10893351 -0.061850883
000270 95 ba 73 3d 33 ff 5b 3d bd 87 23 bc d2 3a dd 3d
       0.05950411 0.053710174 -0.009981093 0.10802235
000280 29 96 14 bd 22 3e 0b 3c 40 6e 0c be 80 60 1c be
       -0.036276016 0.0084987 -0.13713932 -0.15271187
000290 71 b3 53 bb 27 c2 1c be 5d 3e 5c 3c 16 fa 18 3e
       -0.0032303 -0.15308438 0.013442603 0.1493915
0002a0 d2 36 f3 bd aa 56 91 3d 54 42 19 bd ea 8d 2f be
       -0.118756905 0.07096608 -0.03741677 -0.1714398
0002b0 d7 a6 c5 3d 58 e6 9b 3d 39 52 1f be 08 4b 33 3e
       0.09650963 0.07612294 -0.15558709 0.17509091
0002c0 41 ab 71 ba ed de 2d be dc e0 1b 3e 81 c3 83 3d
       -0.0009218939 -0.1697957 0.15222496 0.06433774
0002d0 1b 40 15 be a0 57 57 bd 2f 6a a2 3d d2 61 41 bd
       -0.14575236 -0.0525738 0.07930409 -0.04721243
0002e0 fb 1b 58 bd e3 c3 bb 3d d2 54 32 be c7 61 f6 bd
       -0.05276106 0.09168222 -0.17415169 -0.12030368
0002f0 03 7a 6c bd 2a 84 f6 3c ec 11 f2 3c 61 59 01 be
       -0.057733547 0.030092318 0.029549561 -0.12631752
000300 ea 16 2d 3e 50 eb 84 3d 5f b0 91 bd 4c 8e 93 3d
       0.16903272 0.06490195 -0.07113718 0.07204875
000310 fc 23 87 3d 3a 32 37 3d 38 4b 17 be fe 0b e0 3d
       0.0659866 0.044725634 -0.14774787 0.10939787
000320 01 a8 a8 bc 1f bd 47 bd 6f b1 d4 bd 9f c8 23 be
       -0.020587923 -0.048764344 -0.10385405 -0.159945
000330 96 9b 42 3d 69 9a a9 3d df 6e 0d be 92 12 9a 3d
       0.04751166 0.082814045 -0.13811825 0.07523073
000340 0f 98 e4 bd ef 7d 01 be e0 48 d7 bd 96 40 e0 3d
       -0.111618154 -0.12645696 -0.10511947 0.10949819
000350 60 7c ce 3d 4c 31 b9 3d a5 ee 15 3e 36 32 ff 3d
       0.100823164 0.09042606 0.14641817 0.12460749
000360 72 ce 8b bd 3e f5 df 3d fd 37 10 3e c8 23 19 be
       -0.06826486 0.10935448 0.14083858 -0.14955056
000370 10 6a 12 3e c2 9a d7 3d 4b eb 08 3d 1f c6 e2 bd
       0.14298272 0.105275646 0.033427518 -0.11072945
000380 c8 5f 1f 3c 2b 3a 1d be 46 55 b1 3d eb 28 1c 3e
       0.009727426 -0.1535422 0.08658843 0.15249984
000390 b5 46 d0 3d f8 e3 20 bd 34 62 17 be b1 b0 21 be
       0.10169736 -0.039279908 -0.14783555 -0.15790059
0003a0 ce 81 be bc e7 01 1c 3e 42 36 64 bc 13 34 3c 3d
       -0.023255255 0.152351 -0.013928952 0.0459481
0003b0 39 82 e1 3d bf 6f 2e bd e3 fd 49 3c 32 dd 1c 3e
       0.11011166 -0.042587038 0.012328598 0.15318754
0003c0 ad 43 8c 3d e9 a4 7d 3d 25 45 d6 bc 9b 54 1d be
       0.06848846 0.06192485 -0.026156018 -0.15364306
0003d0 34 54 fc 3d fe c3 1d 3e d9 e9 f4 3c 17 a2 e6 3d
       0.12320748 0.15406796 0.029896664 0.11261385
0003e0 cd 4c 7a 3d 45 50 1e be f5 82 1f 3e f0 ab b4 bc
       0.0611084 -0.15460308 0.155773 -0.022054642
0003f0 05 5f 29 3e 39 bb 00 3e fb 21 b5 bd 6d e5 eb bd
       0.16540153 0.1257142 -0.08844372 -0.11518369

encoder.attn_layers.0.attention.out_projection.bias f4 [32]
000000 d8 be d8 bd f8 fd fd 3d c3 e6 15 bd 3f 6d 92 3d
       -0.105832756 0.12401956 -0.036597025 0.07149743
000010 21 1c 30 3e f0 e4 e4 3d b0 a7 47 bd ad b2 80 bb
       0.1719823 0.11176479 -0.048743904 -0.00392755
000020 71 e7 1a bd 5f aa fe bc 72 ae e8 bc 69 ce 3f 3d
       -0.037818376 -0.031087099 -0.028403495 0.046827707
000030 d0 74 5a bd eb 6a fa 3d 04 08 0a be 38 e8 81 bd
       -0.053334057 0.12227424 -0.1347962 -0.0634312
000040 b5 58 b9 3d e4 36 12 3e 29 31 06 3d 4f 21 1e bd
       0.09050123 0.14278752 0.032761727 -0.038605984
000050 c6 59 d5 3c fe 50 cb bd f5 f9 1d bd a4 22 79 3d
       0.026043784 -0.099275574 -0.038568456 0.06082405
000060 1b 6b 04 3d aa 91 bd bd e0 ce 2c be e4 16 98 3d
       0.032328706 -0.09256299 -0.16875792 0.07426241
000070 74 50 31 3e 88 8a eb 3d ec 8b 43 bd 76 41 d3 bd
       0.17315847 0.11501032 -0.04774086 -0.1031522
