checkpoints/long_term_forecast_coffee_LightTS_custom_ftS_sl24_ll12_pl24_dm32_nh8_el3_dl2_df64_fc3_ebfixed_dtTrue_Exp_0/checkpoint.pth (torch, 16171 bytes, 20 tensors)

layer_1.spatial_proj.0.weight f4 [8, 24]
000000 93 ca 12 be 1e ad 55 3c e6 4e da 3d 9f 13 c4 3d
       -0.14335088 0.013041763 0.1065958 0.09574055
000010 e9 d5 14 3d b3 2c 04 be b2 bf 36 be 13 2d 49 3e
       0.036336813 -0.12907676 -0.17846563 0.196461
000020 1c 9b 9c bd 96 e6 1f be a3 1d 09 3e 6a 4b 42 be
       -0.07646772 -0.15615305 0.13390212 -0.1897408
000030 45 64 0e 3e d6 79 15 be cd 5d df 3d de 62 4a bd
       0.13905437 -0.14597258 0.10906563 -0.049410693
000040 7e 29 51 3c 24 71 9b bd 41 20 fc 3d 54 47 d8 3d
       0.01276624 -0.07589939 0.123108394 0.1056048
000050 10 16 07 3e 29 04 95 bd 83 2e 56 3e 2f ed 08 3c
       0.1319201 -0.07276184 0.2091618 0.00835733
000060 9b 04 71 bd 8d 0c 47 be fd 4a 06 3e 4e 10 3f be
       -0.058842283 -0.19438381 0.13114543 -0.18658563
000070 92 36 0e be a3 af 9c bd 52 ae 8c 3d 0a 47 95 3d
       -0.13888004 -0.076506875 0.068691865 0.0728894
000080 d0 ca 02 3e 64 2d db 3a dc 3d bd 3d 05 38 02 3e
       0.1277268 0.0016721901 0.09240314 0.12716682
000090 f8 2b 4f be 60 56 36 be c0 28 51 be 90 27 1b be
       -0.20231616 -0.17806387 -0.20425701 -0.1515181
0000a0 21 b4 c1 3d 5b ba 32 3e 28 97 82 3d 8c e8 28 be
       0.09458185 0.17453901 0.06376487 -0.1649496
0000b0 4e c6 bb 3d b1 4f dc 3d 5f 87 32 3e ed 7c 45 be
       0.09168683 0.107573874 0.17434452 -0.19285937
0000c0 e8 02 b9 bc 89 65 c9 bd 31 3d 3d 3e 37 7f f6 3d
       -0.022584394 -0.098338194 0.18480374 0.12035983
0000d0 83 9c 00 3d 54 1c 9f 3c c0 03 c0 3d a3 36 1d be
       0.03139926 0.019422688 0.09375715 -0.15352874
0000e0 67 68 63 bc 9c b6 15 be 39 dc a2 3d ed 48 8f 3d
       -0.013879872 -0.14620441 0.079521604 0.06996331
0000f0 5b fe 2e be c3 1c 05 bb 6b c9 cf 3d fd 67 e0 3d
       -0.17089216 -0.0020311333 0.10145839 0.10957334
000100 1b 0b 4c 3e 7a 9c 35 be 6d 37 69 bd 44 41 9d bd
       0.19926111 -0.17735472 -0.056937624 -0.07678464
000110 2a e8 29 be af a6 40 be 76 34 13 be 93 30 d0 3d
       -0.1659247 -0.18813585 -0.14375481 0.10165515
000120 13 cc 29 be 5b 5f ae bd 80 55 03 be 64 60 18 be
       -0.16581754 -0.08514281 -0.12825584 -0.1488052
000130 66 31 45 3e 25 21 5d bc 6c 1e 75 bd 2c 0b 47 3e
       0.19257125 -0.013496672 -0.059843466 0.19437855
000140 5b 49 e0 bd 91 fa 9f bd f6 00 6e bd 2c 88 03 be
       -0.109514914 -0.078114636 -0.058106385 -0.12844914
000150 38 0f b7 bd a3 85 27 bd 22 9d c0 3c ba 0c e5 bd
       -0.089384496 -0.04089893 0.023512427 -0.11184068
000160 6b 19 bd 39 d5 5e 56 3e f2 88 3d 3c 49 5b 7f bc
       0.00036067827 0.20934613 0.011568295 -0.015585729
000170 16 42 45 be 5d c6 0f be ff f7 e5 3d 95 ae 05 3e
       -0.19263491 -0.14040513 0.11228942 0.13054879
000180 a8 af 4b be ad 98 19 3d 4d 31 16 3d 66 40 b1 bd
       -0.19891226 0.03749912 0.03666811 -0.08654861
000190 ab bb 1c 3e 86 85 c2 3c 9f 00 26 be 6c 65 29 3e
       0.15305965 0.02374531 -0.16211174 0.16542596
0001a0 9b 1e b4 3d 20 90 d3 bd 9f 27 18 3c 72 74 11 3e
       0.087949 -0.10330224 0.00928679 0.14204577
0001b0 26 2d 19 3e 31 41 b9 3d 6c 09 4a 3d c6 e2 90 bc
       0.14958629 0.090456374 0.04932539 -0.017686259
0001c0 52 87 db 3c 80 e3 1e be 2b a6 68 bb d4 d0 52 be
       0.026797924 -0.15516472 -0.0035499434 -0.20587474
0001d0 77 d9 e4 3d e9 de 17 be d0 bd 12 be e2 f3 20 3e
       0.111742906 -0.14831127 -0.1433022 0.15718034
0001e0 a9 ce 91 bd 33 a9 0f be 5d 65 2f be 38 f5 ad 3d
       -0.071194954 -0.14029388 -0.17128511 0.084940374
0001f0 a3 1f 41 be 6b 6f 18 3e 52 e7 6c 3d d9 f9 3c 3e
       -0.18859725 0.14886253 0.05783779 0.18454684
000200 ef e8 b0 bd c9 69 3c be 70 08 d7 bc 7f 9d 1f 3e
       -0.086381786 -0.18399729 -0.02624914 0.15587424
000210 a5 d5 d4 bd 02 67 48 be 1e b2 1a 3e e9 db 0c 3e
       -0.10392312 -0.19570544 0.15107009 0.13755764
000220 ab dc 22 3e c4 b7 fe 3d de d0 f2 3a b7 c6 2f be
       0.1590449 0.12437394 0.0018525382 -0.17165647
000230 3e 5a 17 be fe e5 ce bd de 3c 0e be 35 1b 29 be
       -0.14780518 -0.10102461 -0.13890406 -0.16514285
000240 5f 66 16 3e 89 57 14 3e 2f 64 0e be 14 16 a7 bc
       0.14687489 0.14486517 -0.13905405 -0.02039627
000250 49 4c 41 3e 32 86 bc 3d de cc 4a bd b6 84 84 bd
       0.18876757 0.09205283 -0.049511783 -0.06470625
000260 f3 6c c5 3d 78 ad b2 bd fb 4d 26 be 9b 4e 84 bd
       0.09639921 -0.08724493 -0.16240685 -0.06460305
000270 fb 66 fa 3d 82 0c b8 bd f7 e9 19 be e5 2f ab bd
       0.12226673 -0.08986761 -0.15030657 -0.083587445
000280 9e e1 af bd 70 1f 22 be 46 91 3b bc 18 41 c4 3d
       -0.08587955 -0.15832305 -0.01144821 0.09582728
000290 d8 50 3b 3e ca 9d 45 3d 8f 14 1e 3e 4e f8 94 3d
       0.18292558 0.048246183 0.1543753 0.07273923
0002a0 70 60 38 bd 9d e0 16 be 55 46 3a bd b4 af d6 3d
       -0.045013845 -0.1473412 -0.04547723 0.104827315
0002b0 42 2e 4f 3d ad 54 40 bd e1 ad 83 ba e1 0a 9e 3d
       0.050581224 -0.046955753 -0.0010046327 0.07716919
0002c0 f2 52 ab bc 38 f7 21 3e 5d ed f9 bd fb a3 02 3d
       -0.020913575 0.15816963 -0.122034766 0.031894665
0002d0 23 3b e8 3d d7 a8 2e 3e d8 5a 12 3d a6 7c af 3c
       0.113394044 0.17056595 0.035731167 0.021421742
0002e0 4c 1c 3e 3e ab 85 0c be b8 f7 b5 bd a7 e2 e4 bd
       0.18565482 -0.13722865 -0.08885139 -0.11176043
0002f0 69 c4 4f 3e 38 d2 89 3c 66 f5 21 be 34 6e fd 3c
       0.20289768 0.016823873 -0.15816268 0.030936338

layer_1.spatial_proj.0.bias f4 [8]
000000 48 cb 3d be 88 6e f3 3d 1f ce 1c 3e ab b7 9d 3d
       -0.18534577 0.118863165 0.15313004 0.077010475
000010 a5 01 42 bd 0b 6d db bd 11 f8 2f 3e 63 52 e3 bc
       -0.04736485 -0.10714158 0.17184474 -0.027749246

layer_1.spatial_proj.2.weight f4 [2, 8]
000000 f0 05 1b 3e b6 e9 eb bc 49 21 92 3e b1 2a 88 bd
       0.15138984 -0.028797965 0.2854102 -0.06648768
000010 27 96 6c 3e e7 8c 89 be 66 7f 94 be 9f de 89 3d
       0.23104154 -0.26865312 -0.29003447 0.06731915
000020 74 52 9c 3e 48 ab 73 be 10 52 6a 3e d7 52 18 3d
       0.30531657 -0.23795807 0.22882867 0.037188377
000030 a3 20 9d be b1 58 60 be 0c 72 26 bd 1b 9d 88 3d
       -0.30688962 -0.21908833 -0.040636107 0.066705905

layer_1.spatial_proj.2.bias f4 [2]
000000 ed 00 1d 3e 5b 68 a0 3e
       0.15332384 0.31329617

layer_1.output_proj.weight f4 [8, 2]
000000 4d 8b cc 3e 41 d0 3f be fc 71 0d bd 51 c7 2b 3f
       0.39950028 -0.18731786 -0.034532532 0.6710101
000010 20 1f fd bd ef e3 92 be b9 84 c6 3e 0d f3 00 3c
       -0.12359452 -0.28689525 0.38773134 0.007870448
000020 75 6b 4f 3e 85 36 86 3d 3c a4 29 3f 23 b0 12 3f
       0.20255835 0.065533675 0.66266227 0.57300013
000030 c0 d9 6b 3e 3e ea a0 3d 91 f8 5d 3e 27 c0 88 be
       0.23032284 0.07857178 0.21676852 -0.267091

layer_1.output_proj.bias f4 [8]
000000 38 02 d0 3e fa c2 10 3f c3 e8 0b 3f 7c c2 c8 be
       0.40626693 0.5654751 0.5465204 -0.3921088
000010 61 73 a4 be 19 bd 19 3f 40 5d 0f 3f be 81 db 3e
       -0.32119277 0.60054165 0.56001663 0.42872423

layer_2.spatial_proj.0.weight f4 [8, 24]
000000 af d8 ec bd 72 07 2d be ac ae 22 bc 58 71 f0 3d
       -0.115647666 -0.16897371 -0.00992934 0.117403686
000010 05 f5 c9 bd 49 9c 06 be 3e 4c 55 be 2b 22 b4 3c
       -0.09861187 -0.13145556 -0.20829865 0.021988949
000020 1f 6b 99 3c 41 5e ef bd b1 5d 91 3d ce d2 f0 bc
       0.018727837 -0.116878994 0.07097948 -0.029397395
000030 cc b3 2d be 3f 7e 0a bd ef 52 55 be 3f 89 41 3e
       -0.16963118 -0.033811804 -0.20832418 0.18900011
000040 d6 49 47 be 1b 4b 84 3d ad 9e f9 bd 4c 45 0c be
       -0.1946176 0.06459638 -0.12188468 -0.1369831
000050 64 d1 cb 3d 00 d7 a9 3d 2d 15 39 3e 26 7f 25 3e
       0.099520475 0.08292961 0.18074484 0.16161785
000060 eb 0f ab bd 0d 02 38 bd 4e e1 0e 3d 03 46 10 3e
       -0.083526455 -0.04492383 0.034882836 0.14089207
000070 a0 17 b8 bd f4 de 03 be 6c 33 e0 3d 5b 59 3c 3e
       -0.08988881 -0.12878019 0.10947308 0.18393461
000080 86 e5 7d 3b 9c 74 24 be de 12 02 be 08 58 45 be
       0.0038741543 -0.16060108 -0.1270251 -0.19271863
000090 1b 5b 8e bd 5d be 9a 3d 15 21 e4 bb 30 59 a0 3d
       -0.06950971 0.0755584 -0.0069619515 0.07829511
0000a0 6a 0d 18 3d 22 f0 25 3e ac 7a b0 3d c2 fe 0f 3e
       0.037122168 0.16204885 0.08617148 0.14062026
0000b0 7f 97 8c 3d 23 b5 33 be df 7e cc 3d 37 18 46 3e
       0.06864833 -0.17549567 0.09985136 0.19345175
0000c0 5f 10 0c 3e 19 1e 28 bd ea 4d 0f bd 38 cb d3 3d
       0.1367812 -0.04104433 -0.034986414 0.10341495
0000d0 9e 84 11 be f2 95 ff bd d6 fc 6c 3d 3f 87 a8 3d
       -0.14210746 -0.12479772 0.05785831 0.08228921
0000e0 14 00 65 3d b9 11 49 bd 47 24 8a bd 76 c7 2d bd
       0.055908278 -0.049089167 -0.067452006 -0.04242655
0000f0 34 89 25 be 19 8f 8d bc 5f 4e ff 3d cd cc 26 be
       -0.1616562 -0.017280148 0.1246612 -0.16289063
000100 11 0f cc bb c2 09 4c 3e 0e e2 d2 b8 0d ef e1 3c
       -0.006227382 0.19925597 -0.00010055686 0.027579809
000110 95 47 b3 3d 9b 80 6b bd 7f f0 37 be c7 33 67 bd
       0.087538876 -0.057495695 -0.17962836 -0.056445863
000120 89 fd 36 3e f2 97 94 bd 17 9a 1c 3e a0 0c b5 3d
       0.17870153 -0.07255544 0.15293156 0.08840299
000130 16 a0 40 3d d4 ec 11 be 15 8d 13 3e 73 08 45 3e
       0.04702767 -0.14250499 0.14409287 0.19241504
000140 6b bd 4f be a1 b3 31 3e 1d d2 3c be 79 a9 22 be
       -0.20287101 0.17353679 -0.18439527 -0.15884961
000150 8c f9 cc 3d fe c9 07 3e eb 08 8a bd c3 e6 ad bd
       0.10008535 0.13260648 -0.06739982 -0.0849128
000160 dc 65 77 bd f5 f6 8f ba d3 3b 8a 3d fa d0 89 bd
       -0.060399875 -0.0010983633 0.06749692 -0.06729312
000170 7b a4 45 be df b8 3b be 65 34 2a 3e 32 75 0b be
       -0.19301026 -0.18332241 0.1662155 -0.13618925
000180 59 8e 01 be f0 54 93 3d 6b d5 ce 3d 76 71 ee bd
       -0.12651958 0.07193935 0.100993 -0.11642735
000190 f8 1b 4f bd 99 09 0f bd cf 78 42 bd da 5f 51 bd
       -0.050563782 -0.034921262 -0.047478493 -0.0511168
0001a0 8f e7 0d 3e da 68 44 be 0d 6e c6 3d d7 f3 8b 3c
       0.13857864 -0.19180623 0.09688959 0.017084045
0001b0 cc 00 1d 3e 52 41 0c bd eb 0b 95 bd 17 88 4d bd
       0.15332335 -0.03424198 -0.07277664 -0.050178614
0001c0 c2 11 fa bc 69 8e 6c bd 5c e6 bb 3d d0 ff 43 3e
       -0.030526046 -0.057753 0.09174797 0.19140553
0001d0 95 7d ba bd dd 15 42 bd d0 9d 9b bc d4 da aa 3b
       -0.09105984 -0.04738413 -0.01899615 0.0052140746
0001e0 9a df ee 3b 8c 7e 0f 3e 6d 9d 08 3d 19 2a 27 3e
       0.007289839 0.14013118 0.033353258 0.16324653
0001f0 9e f7 b5 3d 7a bd b7 bd f6 e0 47 be 0d 26 95 bd
       0.0888512 -0.08971687 -0.1951941 -0.07282648
000200 1f 93 39 36 30 ee 97 3d 2b b5 40 be 8e 70 cf bd
       2.7652784e-06 0.074184775 -0.1881911 -0.1012889
000210 2a 9d c7 3d bc 38 50 bd 1c cb 0f 3e d4 67 3e be
       0.097467735 -0.050835356 0.14042324 -0.18594295
000220 a8 b6 d6 3d 67 50 43 bd 87 0b bf bd 47 2f a7 3c
       0.10484058 -0.0476841 -0.093283705 0.020408286
000230 8e 74 ef 3c 7a db ac bd ee 3b 13 3e 31 cd 8f bd
       0.029230382 -0.08440299 0.1437833 -0.07021559
000240 8a eb 1d 3d 7e d3 1b be 4b ef 4e bd b3 ff 3c 3e
       0.038554706 -0.15217397 -0.050521176 0.18456917
000250 10 df 4a 3c 91 ae f5 3d a6 ab 14 3d 71 e0 2e 3e
       0.012382284 0.119961865 0.03629651 0.17077805
000260 43 60 ec bd 46 23 80 3d e5 70 d0 bd a0 af 4a bc
       -0.11541798 0.06256728 -0.10177783 -0.012370974
000270 82 21 37 be ba dd 1f 3e 3b 53 96 3d 6f 83 a8 bc
       -0.17883876 0.15611926 0.07340094 -0.020570485
000280 c2 db 96 bd 2f 8d 36 3e a3 bd 08 be 03 fb 25 3e
       -0.07366134 0.17827295 -0.1335359 0.16209035
000290 41 44 b6 bd 4e d3 6d 39 3a 79 52 3e 78 08 0c 3e
       -0.08899737 0.00022680798 0.20554057 0.13675106
0002a0 25 7c 20 be 25 04 fd 3d 90 b0 d0 bb a4 ac f1 3d
       -0.15672357 0.12354306 -0.006368704 0.11800507
0002b0 4a 36 dc 3d d3 ce 19 3c c6 ba 29 3b ee 37 be 3d
       0.10752542 0.00938769 0.002589868 0.092880115
0002c0 1b 46 1d be 34 69 05 3e dc cd 08 be e8 aa 91 3d
       -0.15358774 0.13028413 -0.13359779 0.07112676
0002d0 52 97 2c 3e e4 74 12 3e 4c e9 c7 bd e5 cd 3b 3e
       0.16854599 0.14302403 -0.09761295 0.18340261
0002e0 84 47 01 be ae 73 59 bd f2 17 0b be 3f 97 45 be
       -0.12624937 -0.053088836 -0.13583353 -0.19295977
0002f0 b6 07 88 3c 64 5c c6 bd 73 f5 34 be 60 9f 11 3e
       0.01660524 -0.09685591 -0.17671756 0.14220953

layer_2.spatial_proj.0.bias f4 [8]
000000 69 a6 fd bd 88 7f 0e 3d 7a cd 3b 3e e9 12 44 3e
       -0.12385256 0.034789592 0.18340102 0.19147839
000010 07 7d 70 3d 8b e0 1b 3d 8f 72 8b 3d f6 06 45 3e
       0.058712985 0.038055938 0.0680896 0.19240937

layer_2.spatial_proj.2.weight f4 [2, 8]
000000 b8 c7 2f 3e 30 91 86 3e e2 2b 5f be d3 ba 2b 3e
       0.1716603 0.26282644 -0.21794084 0.16770487
000010 31 06 6d 3e 71 cc 64 3e 41 82 49 be a0 fe 85 3e
       0.23146893 0.22343613 -0.19678594 0.26170826
000020 c6 93 91 3c bf 39 ab be 64 bd 89 3e 5e 53 91 3e
       0.01777066 -0.33442494 0.26902306 0.28383917
000030 34 48 45 be 6b bb 6a be 66 17 58 3e 3c d3 75 3e
       -0.19265825 -0.22923057 0.21102676 0.24006361

layer_2.spatial_proj.2.bias f4 [2]
000000 be 2c 8d be d3 50 a7 be
       -0.27573198 -0.3267885

layer_2.output_proj.weight f4 [8, 2]
000000 5c ba 2b be f0 2b ad 3e a1 d3 ae be 0f 7a 28 3f
       -0.16770309 0.33822584 -0.34145835 0.65811247
000010 b0 47 63 be 49 92 88 be 2c f7 2b 3f 10 bd 6d be
       -0.22195315 -0.26674107 0.6717403 -0.23216653
000020 17 b3 01 3f c3 26 42 3e 41 c2 ec 3e 0a 80 1d 3f
       0.50663894 0.18960099 0.46241954 0.615235
000030 f9 e2 28 bf ab 2d 19 bf 09 12 8d 3d 80 ac fc bd
       -0.6597133 -0.5983531 0.068882056 -0.12337589

layer_2.output_proj.bias f4 [8]
000000 c0 ff 77 3e 66 14 dd 3d 64 bb bf 3e d1 1f 89 3e
       0.24218655 0.10794906 0.37447655 0.26782086
000010 b6 ae 25 3f 85 7f e7 3e 4e 9c 06 3f 0d 82 6c 3e
       0.6471971 0.45214477 0.5258225 0.23096485

layer_3.spatial_proj.0.weight f4 [16, 16]
000000 75 c9 e4 bd fe 36 b7 bd 75 fd 34 be 19 05 61 be
       -0.111712374 -0.08946036 -0.17674811 -0.21974601
000010 b4 a1 36 3e 8b 14 0d 3e 51 0b 33 3e 54 0d 77 3e
       0.17835122 0.13777368 0.17484786 0.24126178
000020 d2 7c 53 be 05 bb 82 bd 93 cd 7c 3d 17 e9 26 be
       -0.20653084 -0.063833274 0.06171949 -0.16299854
000030 94 7e 22 be 25 c3 a6 3c da aa e9 3d 74 5d 2f be
       -0.15868598 0.020356724 0.114095405 -0.17125493
000040 d2 4a 62 3e d5 32 dc 3c 71 72 88 ba 2c 24 55 3d
       0.22098854 0.026879707 -0.0010410083 0.05203645
000050 b2 5f d8 bd 52 5b 07 bc 1c d0 00 3e 22 03 aa 3d
       -0.105651274 -0.008261519 0.12579387 0.08301379
000060 3e 20 4e 3e 35 e5 40 be f5 6c f0 bd 2c de 86 3d
       0.20129487 -0.18837436 -0.11739532 0.06585345
000070 ac ae 06 3e 83 f4 80 3e 90 1a c6 3d 3d fa 43 3e
       0.1315257 0.25186548 0.09673035 0.19138427
000080 e6 7f a7 3d e8 b2 73 3e bd d9 1a bd 17 66 a5 bd
       0.081786916 0.23798716 -0.037805308 -0.08076113
000090 71 3d 67 be 33 c2 36 3e 61 eb 3a 3d 99 fd 1e 3d
       -0.22582032 0.17847519 0.04563463 0.03881607
0000a0 64 53 e7 3d d1 a2 e9 3c 2f 98 1f 3e ee 52 2e be
       0.112952024 0.02852002 0.15585397 -0.17023823
0000b0 77 cf 65 be 52 55 5b be fc 6d ca 3a 99 04 e2 3c
       -0.22442423 -0.21419266 0.0015444155 0.027590083
0000c0 5f db 44 3d 49 50 c5 bd 56 f0 5e be eb 01 48 be
       0.04806077 -0.09634454 -0.21771368 -0.19531982
0000d0 e9 10 29 be 8f 55 3f 3e 47 9e d8 bc 36 e1 a0 3d
       -0.16510357 0.18684982 -0.02644266 0.078554556
0000e0 e2 77 e4 3d 74 f4 5d 3e 57 62 df 3d 56 bb 1c 3e
       0.11155678 0.21675283 0.10907429 0.15305838
0000f0 6b 9c 31 3c 48 89 55 be 43 aa 43 be 8b ab 0b 3c
       0.010840516 -0.2085315 -0.19107918 0.008524786
000100 06 94 01 3e 08 51 39 be 11 84 86 bc 4b 78 15 3e
       0.12654123 -0.18097317 -0.016420396 0.1459667
000110 de 9e 46 3e f0 41 9f bb cc fa bb bd 62 1e 2e 3d
       0.1939654 -0.0048601553 -0.09178695 0.042509444
000120 fb 52 1c be 1b 39 6d 3d 08 b2 66 be 49 85 ae 3d
       -0.1526603 0.05791579 -0.22528851 0.08521516
000130 d1 fb 07 be 9d 65 16 3e fd a7 d1 3d fb 97 61 bd
       -0.13279654 0.146872 0.10237119 -0.05507658
000140 e1 8b 20 3e 40 31 78 be da 83 2a 3e af 94 0b be
       0.1567836 -0.24237537 0.1665186 -0.13630937
000150 95 ca 95 3d 56 53 3d 3e 31 40 68 3e f6 6d 58 be
       0.0731403 0.18488821 0.22680737 -0.21135697
000160 c4 83 48 bc f8 27 a9 3d a2 96 e9 bd 6a 1b f4 bd
       -0.012238447 0.082595766 -0.11405684 -0.11919291
000170 20 a1 2f 3e b3 34 4b be 1c 80 4d be 8c 51 78 be
       0.17151308 -0.19844322 -0.20068401 -0.24249858
000180 fa fe 11 3d 5c cd 0c 3e df 6a 68 3e 0e 2b 57 3e
       0.035643555 0.13750213 0.22697018 0.21012518
000190 f4 d8 c1 bd e3 1c 4d bd 65 27 4e be f7 7b d4 3c
       -0.09465209 -0.050076377 -0.20132215 0.025938017
0001a0 c1 10 27 be 1f 6b 54 3e 11 c7 80 be 60 f5 69 3e
       -0.16314985 0.20743988 -0.25151876 0.2284751
0001b0 8e 4e 83 be 5c 6e 61 bd 42 6b 1e be 94 c9 b5 3d
       -0.2564587 -0.055036888 -0.15470603 0.088763386
0001c0 4f 9b 06 be 3f 7d 33 be d2 fd 0c be b8 22 48 3e
       -0.13145183 -0.17528246 -0.137687 0.19544494
0001d0 b9 92 7d 3e 42 60 4a be 54 2d 4d 3d f8 94 b7 bd
       0.24763002 -0.19763282 0.050092056 -0.089639604
0001e0 05 60 7c 3e 8c 4d 65 be 84 c7 5f 3d 31 05 e1 3d
       0.24646004 -0.22392863 0.054633632 0.10987318
0001f0 b2 52 58 be d7 da ed 3b d5 1e 94 bd 90 26 19 be
       -0.21125296 0.0072587538 -0.07232443 -0.14956117
000200 bf 4d 2c be 8f 65 ed bc b7 22 29 be 69 97 d3 3d
       -0.16826533 -0.028979091 -0.16517149 0.103316136
000210 02 7a 45 be d1 82 f3 3b 95 2a b7 bd 81 94 a4 bd
       -0.19284824 0.007431366 -0.08943669 -0.08036137
000220 0f ab 60 3e f2 ca 0e be be e6 7b be 8a 42 67 be
       0.21940254 -0.13944605 -0.2459974 -0.22583976
000230 da 63 3e 3e 20 4c e8 3c 8b e6 9e bd dc 39 f3 bd
       0.18592778 0.028356612 -0.07758816 -0.1187627
000240 0d 6c 34 be c1 54 db bd a8 6b 2d 3d 4a 3b d2 bd
       -0.17619343 -0.10709525 0.042338997 -0.10265215
000250 ad ee 6b 3e 48 2e 89 bd 26 dc 2b 3d b6 57 e2 3d
       0.23040266 -0.066982806 0.041957997 0.11051886
000260 dd ed f3 3c ce 5c 30 be 17 c8 e2 bd 86 01 38 be
       0.029776508 -0.17222902 -0.1107332 -0.17969331
000270 ef 6a 04 be 89 a0 26 bc 23 8c 28 be 5b cb c7 3d
       -0.12931417 -0.0101701105 -0.16459708 0.09755584
000280 7d 5f 00 3e f3 67 08 3e fe 03 60 3e 8b 33 c4 bd
       0.12536426 0.13320903 0.21876523 -0.095801435
000290 3a 92 0f 3b f4 1e 15 be 81 74 3d 3e 1b 92 ea bc
       0.0021907226 -0.14562589 0.18501474 -0.028634122
0002a0 9f ec 70 3e e0 07 14 3d c8 ab 5f bd e9 57 49 be
       0.23527764 0.036140323 -0.054607183 -0.19662441
0002b0 c1 96 5e be cc aa 4b 3d 0a 41 19 be 4c a2 87 3d
       -0.21737196 0.04972343 -0.14966217 0.066227525
0002c0 ef b1 1d bd 56 9d fe bd 86 0c 2c 3e 64 b9 1c be
       -0.03849977 -0.12432353 0.16801652 -0.15305096
0002d0 56 d5 60 3d 93 2c 13 be 22 1f 7a 3e 92 f4 26 be
       0.054890953 -0.14372472 0.24425939 -0.16304234
0002e0 07 18 80 3d 86 2a 52 3e ba b1 20 be 32 e3 d5 3d
       0.06254583 0.20524034 -0.15692797 0.10443725
0002f0 54 91 46 be d8 02 5f 3e 4a db 4d 3e 9c 3d 19 be
       -0.19391376 0.21778429 0.20103183 -0.14964908
000300 44 04 44 bd 15 62 24 3e 4c 40 59 3e 95 4e 48 be
       -0.04785563 0.1605304 0.21215934 -0.19561227
000310 8d f7 f8 3d df c5 13 bd 7e 3c 03 be 78 51 37 be
       0.121565916 -0.036077376 -0.12816045 -0.17902172
000320 a2 c8 8e 3d a9 63 d7 3d 87 ab 27 be 8d e0 76 3e
       0.069718614 0.105170555 -0.16374026 0.24109097
000330 78 95 94 3d 5d 0e da bc 05 cc 27 be e1 7c dc bc
       0.072550714 -0.026618177 -0.16386421 -0.026915016
000340 94 87 a0 3c 14 01 01 bc ae c5 43 be 84 29 e9 3d
       0.019595899 -0.007873792 -0.19118378 0.113848716
000350 9d 47 3a 3e 9d 7a 26 be 0c 81 b7 bc df d1 38 3c
       0.18191381 -0.16257711 -0.022400402 0.011280506
000360 f7 8d 50 3d 8f 3b ab 3d fc 73 d6 bb b5 ef 65 3e
       0.05091664 0.08360969 -0.006544588 0.22454722
000370 8e 72 c4 3d 61 74 1f 3e aa 28 09 3e b5 81 66 3c
       0.09592162 0.15571739 0.13394418 0.0140690105
000380 92 0f 8a 3a b9 e3 9e bc d6 6c 23 be 2b a4 07 be
       0.0010533205 -0.019395696 -0.15959486 -0.13246219
000390 da aa 57 be 84 80 5e be c2 35 82 3d 1f 6f 91 bd
       -0.21061268 -0.21728712 0.0635791 -0.07101273
0003a0 9d 03 38 be 8e fc 71 3e d7 5c 76 3c 31 67 d1 3d
       -0.17970128 0.23631498 0.015036783 0.1022476
0003b0 21 78 3d 3e 4d c3 85 3a 02 de 9b bc 27 bb 1c be
       0.18502857 0.0010205299 -0.01902676 -0.15305768
0003c0 cc 73 fc 3d 6c 7d a6 3d ab 6b 30 3b dc 42 a9 3d
       0.12326774 0.08129391 0.0026919644 0.082647055
0003d0 a7 09 ee bd b0 10 65 3e 9e 66 cb bd cc 20 d5 3d
       -0.11622935 0.22369647 -0.09931682 0.10406646
0003e0 b6 9e f7 3d b0 b8 51 bd 64 5b 64 be 8f a3 ad bd
       0.120908186 -0.051201522 -0.22300488 -0.08478462
0003f0 4d 40 43 be d2 53 e7 bd 6c 80 91 3d d4 89 2d be
       -0.19067498 -0.11295284 0.07104573 -0.16947109

layer_3.spatial_proj.0.bias f4 [16]
000000 20 91 15 3e 1f 09 23 3e 8c 39 07 be 88 19 e6 3d
       0.14606142 0.15921448 -0.13205546 0.112353384
000010 86 4a 49 3e 3e d1 51 3e 57 30 0a be ec f5 c8 3d
       0.19657335 0.20489976 -0.13495003 0.09812531
000020 ca 93 af bd 13 fb fc bd 8a 11 00 be 72 58 48 3e
       -0.085731104 -0.12352576 -0.1250669 0.19564989
000030 32 b1 e9 3d 29 68 96 3c d8 d9 98 bd 43 67 12 bc
       0.114107504 0.018360214 -0.074634254 -0.008935752

layer_3.spatial_proj.2.weight f4 [4, 16]
000000 bf 82 92 3c fb 8a 5e 3e e3 94 05 3e f9 e8 e0 3d
       0.01788461 0.21732704 0.13045077 0.10981936
000010 c8 bc 05 3e 27 02 90 3d 4b db e8 bd 4c ca f2 3d
       0.13060296 0.070316605 -0.11369952 0.11854991
000020 be 59 02 be 80 b7 47 be 58 ff 64 be 1b 78 91 3d
       -0.12729546 -0.19503593 -0.22363031 0.071029864
000030 fe 80 fb 3d fa 53 f9 bc c0 56 4f bc d7 b9 4d 3e
       0.12280463 -0.030435551 -0.01265496 0.20090424
000040 0f 26 80 3e 1f 59 5b 3e 51 eb 4d 3e ee 5e 24 be
       0.25029036 0.21420716 0.20109297 -0.16051838
000050 5d ff 0b bd 37 78 5a be 66 80 89 bd a7 45 30 be
       -0.03417908 -0.21334921 -0.06713943 -0.1721407
000060 66 8d d6 3d d1 bd ef ba 92 fc 4e be 34 4e 33 3e
       0.10476188 -0.0018290823 -0.20213535 0.17510301
000070 c5 3c 0e 3e c2 5a f8 3d cd 09 d8 3d 98 bd 21 3e
       0.13890369 0.12126686 0.10548744 0.1579498
000080 34 b1 38 be 2a 93 15 3e a1 87 39 be 9e ef 3a bd
       -0.18036348 0.1460692 -0.18118145 -0.045638673
000090 9e cd 1d 3d 31 b8 1f bd 8c 1d 87 3d d3 af 9c 3d
       0.03852617 -0.038994018 0.065974325 0.07650723
0000a0 56 8b 15 be 52 f8 80 be d2 05 9f 3c 45 51 d0 3d
       -0.14603934 -0.25189453 0.019411955 0.10171751
0000b0 a2 87 4c be e3 51 f8 3d 9f cc 15 3e 00 4d 14 3e
       -0.19973615 0.12124994 0.14628838 0.14482498
0000c0 8c ee cd 3d ec 67 2a 3d 99 74 7a 3e ef 2a bd bd
       0.10055265 0.041603014 0.24458541 -0.092367046
0000d0 ca 4d a5 3b d7 29 17 3d 2e 45 82 3e f2 9b 5c bd
       0.0050446736 0.036905136 0.25443405 -0.05385966
0000e0 7b 4f 55 3e f7 5b 57 3e 36 47 58 3e 1e 17 94 3c
       0.208311 0.21031176 0.21120915 0.01807743
0000f0 0e c4 0b 3d 99 00 38 3e b9 91 24 be 0b 66 a7 bd
       0.03412252 0.17968978 -0.16071214 -0.0817376

layer_3.spatial_proj.2.bias f4 [4]
000000 d8 fa 39 be e9 b7 64 be bc 27 2b be b2 a9 6d 3e
       -0.18162096 -0.22335781 -0.16714376 0.23209265

layer_3.output_proj.weight f4 [24, 4]
000000 c5 aa 7f be ad 13 2f be fa f6 69 bd 4c 07 c0 3c
       -0.24967487 -0.1709735 -0.0571203 0.02344098
000010 1e 0c bc be 14 d2 01 3d 5a b1 b0 be 70 33 f7 3e
       -0.36727995 0.031694487 -0.34510309 0.4828143
000020 5a fd c5 3e 04 54 4f bc 8e db 97 be 52 22 d1 3e
       0.38669854 -0.012654308 -0.29659694 0.40846497
000030 2f 41 7a be 6d 67 af be c4 ab d5 be fc 72 c5 3e
       -0.24438928 -0.34258595 -0.4173261 0.3856429
000040 5e eb fe bd 04 68 0e be e2 55 2d be da a6 1c 3d
       -0.124472365 -0.13906866 -0.16927293 0.03824506
000050 6a 74 97 bd 14 b9 f8 3e 74 84 c7 be de dd c9 3e
       -0.07395251 0.48578703 -0.3896824 0.39427084
000060 ea 16 26 be 1b 35 45 3e b4 55 cd be 67 50 61 be
       -0.16219679 0.1925854 -0.4010445 -0.22003327
000070 b7 5b a4 3e 8b f5 cf be 72 91 f1 be 5e a8 4b be
       0.32101223 -0.40617022 -0.47181278 -0.19888446
000080 21 2e cc 3e fd 48 c2 be 47 62 b9 be 43 d9 da 3e
       0.39878944 -0.3794631 -0.36207792 0.42743883
000090 1f 1f 9b 3e 4a aa 90 3e 44 da 59 3e f9 ed 70 bc
       0.3029718 0.2825492 0.21274668 -0.014705175
0000a0 cf 37 dc be 0c a1 8e 3d d3 ab 94 3d 63 88 b3 3e
       -0.4301133 0.06964311 0.07259335 0.35064992
0000b0 37 55 82 3d fc f6 99 be 8d 6f a5 be 00 92 d5 3e
       0.0636391 -0.30071247 -0.3231167 0.41712952
0000c0 2f fb c6 bd b2 6d e2 3e b5 ea 44 be 6c 6c 66 3d
       -0.09715878 0.44224316 -0.19230159 0.056255743
0000d0 5f 30 12 3e a0 b8 19 be 72 92 61 be 1e 63 41 3c
       0.14276265 -0.15011835 -0.2202852 0.011803417
0000e0 35 aa 1e be 67 4d fb 3e 32 68 ec 3e e4 a1 06 be
       -0.15494616 0.4908249 0.46173245 -0.13147694
0000f0 4d 30 61 be c8 e3 56 3e 64 1b 5d be c6 9b 17 be
       -0.21991082 0.20985329 -0.2159248 -0.14805517
000100 b6 20 33 be cc 7f e3 3c 7b 4d 30 bc 55 0c 1e bd
       -0.17492947 0.0277709 -0.01076066 -0.03858598
000110 b0 ef 97 be 64 4a fc 3c 86 0c d8 3e b2 d9 30 be
       -0.29675055 0.030797191 0.42197055 -0.17270544
000120 91 5c 66 3e 5b fd cf be e4 7a 59 3d cc 48 eb 3e
       0.22496249 -0.40622982 0.053095713 0.45953977
000130 49 5b a8 bd 6f 94 b5 bd 8b 00 89 be 9e ce 63 be
       -0.08220536 -0.08866202 -0.26758227 -0.22246787
000140 94 a2 b5 be 76 c0 fd 3d 3e 68 c2 be 54 83 f0 be
       -0.354756 0.12390225 -0.37970155 -0.46975195
000150 c6 0d ad 3e 40 3b de 3e fd a5 f7 be 5f b6 e4 3d
       0.3379957 0.4340458 -0.48368827 0.11167597
000160 a8 fc da 3e cc 0b 8d be 43 b8 ec 3e d5 54 8f 3e
       0.42770886 -0.27548063 0.4623433 0.2799441
000170 d4 62 95 3e c1 d9 f3 3e 33 b4 1e be 96 18 c0 3e
       0.29176962 0.4762707 -0.15498428 0.37518758

layer_3.output_proj.bias f4 [24]
000000 22 59 ea 3e 04 51 e6 3d 17 55 f0 be 8f 4d fa be
       0.45771128 0.11245921 -0.46939918 -0.48887298
000010 77 b1 54 be aa 3f 4f 3e 68 10 a3 3e 27 1d 2b 3e
       -0.20770822 0.2023913 0.31848454 0.1671034
000020 20 cb e5 be 6c 31 ae bd d7 8b 86 3e 02 11 2e 3e
       -0.44881535 -0.0850552 0.26278564 0.16998675
000030 2a 77 a2 3d bd ae d4 3e bc a7 c8 be fa 72 84 3b
       0.07932885 0.41539565 -0.3919047 0.0040420266
000040 a9 97 ac be a3 94 f3 be 8e cf 4e be 3a f0 57 be
       -0.33709458 -0.47574338 -0.20196363 -0.21087733
000050 e6 93 a0 3e 60 e8 d1 be 82 ac c7 3d 67 ea 92 be
       0.31362838 -0.409976 0.097497 -0.2869446

ar.weight f4 [24, 24]
000000 b6 45 cc bd 72 da 2d be bd 94 c3 3d 7f b3 69 3d
       -0.09974234 -0.16977862 0.09549854 0.057055946
000010 1d 1f c5 bc ad a6 3b be 1b 52 42 3e e2 15 95 bc
       -0.024062688 -0.183253 0.18976633 -0.018198911
000020 9d f2 2d be 0b f1 1e 3e 86 73 42 be 81 ae b0 3d
       -0.16987081 0.15521638 -0.18989381 0.08627034
000030 22 e1 04 3e ae 09 ef 3d ad 8c 39 3e 94 17 03 be
       0.12976506 0.11671768 0.1812007 -0.12801963
000040 bc 2e 3e be 80 1e 31 3e 0e b0 72 3d be a7 c2 3d
       -0.18572515 0.17296791 0.05924993 0.095046505
000050 16 6d bd 3d 1f 1e da bd 19 d1 02 3e ac 45 7b 3d
       0.09249322 -0.106502764 0.12775077 0.06134574
000060 b7 bd 94 3d 9c 0a e0 bd b3 d5 0a be 0a 3a fc bc
       0.07262748 -0.109395236 -0.13558082 -0.030789394
000070 4a 7a 2b be 73 a6 a5 bc 01 5d 9f 3c 44 42 ff bd
       -0.16745868 -0.02022097 0.019453527 -0.12463811
000080 b0 51 09 bd 6e 4a fa 3d b5 d4 2a be 57 7b 88 3d
       -0.03352517 0.122212276 -0.16682704 0.0666415
000090 47 fe 29 3e c8 76 03 3e a4 94 09 be 95 04 5d 3d
       0.16600905 0.1283828 -0.13435608 0.053959448
0000a0 51 f6 91 3c 13 49 5b bd 34 9f a4 3d ac 4c 0a 3d
       0.017817648 -0.053536486 0.08038178 0.033764526
0000b0 c1 e5 f8 bd 8a d2 2b 3e f0 5a a9 bd 8e aa be 3d
       -0.12153197 0.16779533 -0.08269298 0.093098745
0000c0 a2 bc ab 3d a2 d0 ed 3d a2 51 69 bd c0 2e d4 bd
       0.08385588 0.11612059 -0.056962617 -0.10360479
0000d0 25 c3 cc 3d b0 f1 37 3e 93 1d 1b be 4e 3f 66 bd
       0.09998158 0.1796329 -0.15148 -0.056212716
0000e0 ae 7b 25 3e b8 72 14 3d 4d 5c c1 3d 02 1f 4a bd
       0.16160461 0.036242217 0.09441433 -0.049345978
0000f0 bc 6d d6 3d 05 1e 0b 3d c5 a7 20 be cf a7 32 3e
       0.10470149 0.033964176 -0.15688999 0.17446826
000100 ed fc 41 be 12 ff 06 3e 71 ab 0c be b9 f2 3c 3e
       -0.1894414 0.13183239 -0.13737275 0.18451966
000110 81 fc a3 3d cc 6a 46 3e d9 d8 34 3e f5 33 e3 3c
       0.08007146 0.19376677 0.17660846 0.027734736
000120 06 71 3e 3e ff 95 03 be a7 1f 07 be c3 79 2a be
       0.18597803 -0.12850188 -0.13195668 -0.16648011
000130 85 50 e8 bd d7 ac f4 3d 71 fa e6 3d 60 54 36 be
       -0.11343483 0.11947029 0.11278237 -0.17805624
000140 3c 69 21 be fd 69 13 3e 03 41 4f 3e c1 be 02 3e
       -0.157628 0.143959 0.20239644 0.1276808
000150 78 28 37 3d 5a ed 83 bd 76 c4 0b 3d ca 17 14 3e
       0.04471633 -0.064417556 0.034122907 0.144622
000160 dc e2 25 be 4e 7e 9d bd a9 b8 dd 3c 04 b2 42 be
       -0.16199821 -0.07690106 0.027065592 -0.1901322
000170 e5 3e 41 3b c9 19 20 3d 17 da 89 3d 7f 2f c0 bd
       0.002948695 0.03908709 0.067310505 -0.09384059
000180 0e b7 05 3e 16 ab 3a be d3 64 44 be de 8a 39 3d
       0.13058111 -0.18229327 -0.19179086 0.04529845
000190 96 40 fb 3d 76 11 01 3c 7e 3f 1f 3e b3 e4 df 3d
       0.12268178 0.007877698 0.15551564 0.10932293
0001a0 96 cc 08 3e 3f 1f dd bc e4 bb 16 3e 57 87 1a be
       0.13359293 -0.026992438 0.14720112 -0.1509069
0001b0 20 36 da bd 90 07 b9 bd 02 a3 05 3e 22 c7 3a 3e
       -0.10654855 -0.090346456 0.13050464 0.18240026
0001c0 4d 77 dd bd bc 1a fe 3d c7 13 d9 bd 38 e0 7b 3d
       -0.108137704 0.12407443 -0.10599475 0.06149313
0001d0 8c 50 23 3e 89 f9 6e 3d 49 e3 a2 bb 19 aa b1 3b
       0.15948695 0.058343444 -0.004970942 0.0054218885
0001e0 88 f5 cd bb 41 bd 3e be b9 26 35 3d 3f 14 32 3c
       -0.006285373 -0.18626882 0.044226382 0.010869085
0001f0 da 5c 55 3e 9d 6a 15 be ba b1 48 3e 82 d4 44 3e
       0.20836201 -0.14591451 0.19599047 0.1922169
000200 b9 be 32 be a9 1a 0b bd f4 86 b5 3d a9 b0 cf 3d
       -0.17455567 -0.033960972 0.08863631 0.10141117
000210 1a 1e 9e bd c7 36 05 be 23 02 b4 bd 8f e3 86 bd
       -0.07720585 -0.13009177 -0.0878947 -0.06586372
000220 4c 28 b0 3d 60 ee 32 bc af 83 c0 3d 55 10 d5 bc
       0.08601436 -0.010921091 0.09400117 -0.026008764
000230 65 27 54 3d 6f ff b9 3d bb 30 24 be 63 83 a6 bd
       0.051795382 0.09081923 -0.16034214 -0.08130529
000240 9b c3 43 be 15 6e 8e bd e2 78 13 be 9c 8c 46 be
       -0.19117586 -0.0695459 -0.14401582 -0.19389576
000250 c0 6c 44 3e af 48 9f bd cb 3a d5 3b e6 8a f9 bd
       0.1918211 -0.07777535 0.006507253 -0.12184696
000260 47 46 97 3c b1 89 39 be f6 11 03 bd 0d fb c9 bc
       0.018466128 -0.18118931 -0.03199955 -0.024655843
000270 d6 14 28 3d 92 d3 b5 3c 4d d7 0a 3e 37 74 f1 3b
       0.041035496 0.022195611 0.13558693 0.00736859
000280 67 66 ab bd 92 26 4e 3e 13 84 ff bc d2 38 42 3e
       -0.08369141 0.20131901 -0.031190908 0.18966988
000290 e5 6e 1a be 96 32 e1 bd 11 10 27 be 12 46 fb bd
       -0.15081365 -0.109959766 -0.16314723 -0.12269224
0002a0 b9 27 73 3c 28 8e 23 3e ae 04 16 be 52 63 8f 3d
       0.014841014 0.15972197 -0.14650223 0.07001366
0002b0 30 da 17 3e c8 bc 4e 3e 95 a3 99 3d d8 d0 9e bd
       0.14829326 0.20189202 0.07501904 -0.077546775
0002c0 a8 80 2d be 94 ca 10 3d 9f 6a f0 3d 38 65 d9 3c
       -0.1694361 0.035349444 0.11739086 0.026537523
0002d0 b8 79 cd 3d 16 28 3e 3e dd ad 91 bc 84 2d 06 be
       0.10032982 0.18569979 -0.0177831 -0.131033
0002e0 17 95 c1 bc c8 d3 6c bd 5d 54 fb 3d 99 68 d3 3d
       -0.023630662 -0.057819158 0.122719504 0.10322685
0002f0 5f a1 14 3a d8 9e ec 3d 52 d5 48 be 7e 8f 07 be
       0.0005669798 0.115537345 -0.19612625 -0.13238332
000300 81 d1 6d 3c 56 8a 55 3d 7a 34 31 3e 1b ed b8 3c
       0.014515282 0.05213388 0.17305174 0.022573998
000310 8f 44 f3 bd 68 a4 19 bd 52 91 08 be fe 2d be bd
       -0.11878311 -0.037510306 -0.13336685 -0.09286116
000320 01 c3 7b bd a2 6e 03 3e cd 9c 54 3e 25 cf 49 3d
       -0.061465267 0.12835172 0.2076294 0.049269814
000330 8e db 13 be 7b 1e 37 be 0a e2 a2 bd 2f 7c 1d be
       -0.14439222 -0.17882721 -0.0795327 -0.15379404
000340 f4 47 08 be cf d1 2e be af 1c 27 3d 9a 9a f3 3c
       -0.13308698 -0.17072223 0.04079884 0.029736806
000350 33 e6 88 bc f8 e0 a4 3c a9 1d 13 3d 65 9d 77 3d
       -0.01671133 0.020126805 0.035916958 0.060452837
000360 60 46 d4 3c ae b6 19 bd 90 4c b4 bb 7a 78 36 be
       0.025912464 -0.037527733 -0.005502291 -0.17819396
000370 58 2d 11 be ae e0 e6 bd 6f 6b 1f 3e c8 59 2d 3e
       -0.14177454 -0.11273323 0.15568326 0.1692878
000380 13 99 12 be 73 d5 c1 3d 80 5d 36 bc 4b 50 72 3d
       -0.14316206 0.0946454 -0.011130691 0.059158605
000390 99 40 22 be 4c 34 40 be 62 ae c8 bd 89 c4 9e 3d
       -0.15844955 -0.1876995 -0.09798886 0.0775233
0003a0 eb ca 5c 3d 71 f8 b2 bc 09 92 5f bd f9 d1 c0 3b
       0.053904455 -0.021846982 -0.05458263 0.0058844057
0003b0 72 93 b6 bd 29 65 a5 3d 55 59 6a 3d c5 b8 97 bd
       -0.08914842 0.080759354 0.0572141 -0.07408289
0003c0 23 a0 9a 3d c9 17 17 bd e4 77 91 3d 12 9f aa 3d
       0.07550075 -0.036887918 0.071029454 0.083311215
0003d0 79 9e 3c 3e 27 7b 04 3e 87 e7 2f be 1b 7e 15 3d
       0.18419828 0.12937604 -0.17178164 0.036497217
0003e0 54 dd 8b bc 2f 20 ff bd 7f 4b 34 be 1b 1a 38 3e
       -0.01707331 -0.124573104 -0.17606924 0.17978708
0003f0 40 5b 26 be 45 32 17 3e 27 b0 e5 3d e4 20 a8 bd
       -0.16245747 0.1476527 0.11215239 -0.082093984

ar.bias f4 [24]
000000 e4 8c ad 3d 09 d0 c6 bc ef ab f7 bd 32 12 17 3e
       0.084741384 -0.02426912 -0.120933406 0.14753035
000010 f4 57 27 be 0b 55 17 3e a4 78 77 bd 12 2b 97 3d
       -0.16342145 0.14778535 -0.060417786 0.07381262
000020 32 54 fd bd 6d b0 7d 39 5f 39 cb 3c 30 63 30 3e
       -0.123695746 0.00024193684 0.02480763 0.17225337
000030 ef 17 c1 bd 69 7b 31 be ed 92 20 bd d3 41 95 bd
       -0.09428393 -0.17332233 -0.03920262 -0.072879456
000040 76 ee d7 bd ec f8 38 bd 38 12 b5 bd e1 7e d5 3d
       -0.1054353 -0.045159265 -0.088413656 0.10424591
000050 41 c3 71 bd 6b 6e b1 3d 92 93 cc 3d 65 ee 76 3d
       -0.0590241 0.08663639 0.09989084 0.060285944
