checkpoints/long_term_forecast_coffee_DLinear_custom_Coffee_500Exog.csv_bs128_lrtypeC_ftS_sl48_ll12_pl48_dm32_nh8_el3_dl2_df64_fc3_ebfixed_dtTrue_Exp_0/checkpoint.pth (torch, 20657 bytes, 4 tensors)

Linear_Seasonal.weight f4 [48, 48]
0	0x3c035505	0.008015876
1	0x3c278d18	0.01022651
2	0x3c8b17b6	0.01697908
3	0x3ca05a6a	0.019574363
4	0x3c774925	0.015093123
5	0x3bba01e2	0.005676494
6	0xbc120c51	-0.008914069
7	0xbc994b04	-0.018712528
8	0xbc837725	-0.016048023
9	0xbc331982	-0.0109313745
10	0xbb80ad07	-0.0039268765
11	0x3bc0b9cc	0.0058815237
12	0x3c12ae7c	0.008952733
13	0x3bbf7eb4	0.0058439616
14	0x3ae2194e	0.0017249973
15	0xbaee8087	-0.0018196263
16	0xbbf58baf	-0.007493458
17	0xbc117f76	-0.008880487
18	0xbc9fb057	-0.019493265
19	0xbcbedd91	-0.02329901
20	0xbcc6af00	-0.024253368
21	0xbcbecd77	-0.023291333
22	0xbc844a43	-0.016148692
23	0xbc8dbcea	-0.017301995
24	0xbce2d00b	-0.027687093
25	0xbd121560	-0.035664916
26	0xbd4464e5	-0.047947783
27	0xbd4a1bd3	-0.04934294
28	0xbd3b1716	-0.045676313
29	0xbd248d3c	-0.040173754
30	0xbd423cb7	-0.047421183
31	0xbd61568f	-0.05501419
32	0xbd7ec4bc	-0.06219934
33	0xbd892c62	-0.066979185
34	0xbd88f1c0	-0.06686735
35	0xbd8445b2	-0.06458606
36	0xbd84bed9	-0.06481714
37	0xbd8d7ebf	-0.069089405
38	0xbd38c5cb	-0.045110505
39	0xbcd6a8ef	-0.0262036
40	0xbc79086f	-0.015199765
41	0xbac9f6b2	-0.0015408604
42	0x3c3e5f32	0.011619376
43	0x3cbb0bdf	0.022832809
44	0x3d2b086f	0.04175609
45	0x3d87ee06	0.06637196
46	0x3db4d37f	0.08829402
47	0x3dce9519	0.10087032
48	0x3af067d8	0.0018341495
49	0x3b584988	0.0033002812
50	0x3bce7643	0.006300719
51	0x3c57e02e	0.013176007
52	0x3c71d1e1	0.014759512
53	0x3c2b2e5f	0.010448067
54	0x3a28a89e	0.00064338173
55	0xbc695083	-0.014240387
56	0xbcb0605a	-0.021530319
57	0xbcb563b9	-0.022142278
58	0xbc7ba3ce	-0.015358878
59	0xbbd00ee7	-0.0063494327
60	0x3bc5ae79	0.0060327617
61	0x3bd41cf1	0.0064731766
62	0x3a748108	0.00093270885
63	0xbaa386e3	-0.0012476112
64	0xbbd81de3	-0.0065953596
65	0xbc1b9dcb	-0.00949807
66	0xbc19b4cf	-0.009381487
67	0xbc88fc10	-0.016721755
68	0xbccc4037	-0.024932964
69	0xbce73fd9	-0.028228687
70	0xbcb64a6c	-0.022252284
71	0xbc709ef5	-0.014686336
72	0xbc3913b0	-0.011296198
73	0xbcabd41d	-0.020975167
74	0xbd139bf1	-0.03603739
75	0xbd4225c5	-0.0473993
76	0xbd4b2dc2	-0.049604185
77	0xbd2a8a67	-0.041635897
78	0xbd22c5a0	-0.03973925
79	0xbd1ac1a5	-0.03778233
80	0xbd405e65	-0.04696502
81	0xbd756d7b	-0.05991886
82	0xbd7de7b5	-0.06198855
83	0xbd757945	-0.059930105
84	0xbd77feac	-0.06054561
85	0xbd84e354	-0.06488672
86	0xbd33ed4b	-0.043927472
87	0xbc8bf475	-0.01708434
88	0x3b671fc2	0.0035266732
89	0x3c943e05	0.01809598
90	0x3d021824	0.031761304
91	0x3d379136	0.04481622
92	0x3d5b52dc	0.053545818
93	0x3d8b0f35	0.0679001
94	0x3daff51f	0.08591675
95	0x3dcc6f8d	0.09982214
96	0x3bc4121d	0.0059836046
97	0x3be3494a	0.006936227
98	0x3bd270dd	0.0064221458
99	0x3c1c0937	0.009523681
100	0x3c7f7057	0.015590749
101	0x3c95acca	0.018270869
102	0x3c3913c6	0.011296218
103	0xbb42e4b1	-0.0029738361
104	0xbc6af0e6	-0.014339661
105	0xbcba3bce	-0.022733595
106	0xbccac5f2	-0.02475259
107	0xbc9ead84	-0.019369848
108	0xbbe85751	-0.007090487
109	0x3b436f7b	0.0029821086
110	0x3ae8d3e8	0.0017763348
111	0x392e361d	0.00016614092
112	0xbb753212	-0.0037413877
113	0xbc3e4b43	-0.0116146235
114	0xbc8dec55	-0.017324606
115	0xbc72adf0	-0.014811978
116	0xbcc5bc8f	-0.024137763
117	0xbd0578b1	-0.032585803
118	0xbcf5e7f3	-0.030017829
119	0xbce41e9b	-0.027846625
120	0xbc872a2a	-0.016499598
121	0xbc6e6ff8	-0.014553063
122	0xbcf2d291	-0.029641422
123	0xbd21bfed	-0.039489675
124	0xbd45c744	-0.048285738
125	0xbd3f5c38	-0.046718806
126	0xbd40896f	-0.047006067
127	0xbd36e074	-0.04464765
128	0xbd3b04be	-0.04565882
129	0xbd735967	-0.059411433
130	0xbd8234c6	-0.06357722
131	0xbd862e65	-0.06551818
132	0xbd8b2b7c	-0.06795403
133	0xbd9e2d92	-0.077235356
134	0xbd731039	-0.059341643
135	0xbcd175d3	-0.025568878
136	0x3bc5c6ca	0.0060356604
137	0x3ceb6b41	0.028737666
138	0x3d342de9	0.043989096
139	0x3d673414	0.05644615
140	0x3d886292	0.06659426
141	0x3d9a3e34	0.075313956
142	0x3db310e1	0.08743454
143	0x3dcbf5df	0.099590056
144	0x3b9f325c	0.004858298
145	0x3b71a30a	0.003687086
146	0x3baccdc6	0.0052735535
147	0x3bd27970	0.006423168
148	0x3beff718	0.007323157
149	0x3c6e8512	0.014558094
150	0x3c80b8bb	0.015713086
151	0x3bc74a1c	0.0060818326
152	0xbb929bf6	-0.0044741584
153	0xbc904f37	-0.017615898
154	0xbcdfdf5b	-0.027328184
155	0xbceb7e05	-0.028746614
156	0xbc8fbb46	-0.017545354
157	0xbc0add05	-0.008475547
158	0xba1a5550	-0.00058873463
159	0x3a23c57b	0.00062473834
160	0xbb89c64d	-0.0042045475
161	0xbc10ed95	-0.0088457065
162	0xbc83505e	-0.016029533
163	0xbc925779	-0.017863976
164	0xbc9278b0	-0.017879814
165	0xbcf7660c	-0.030200027
166	0xbd098c5d	-0.033581126
167	0xbd095644	-0.033529535
168	0xbcc103d7	-0.023561401
169	0xbc751193	-0.014957803
170	0xbca0f39c	-0.019647412
171	0xbcedfa27	-0.029049946
172	0xbd22fdd2	-0.039792843
173	0xbd3ce4e3	-0.04611672
174	0xbd590ac5	-0.052988786
175	0xbd46d2f2	-0.048541017
176	0xbd382604	-0.04495813
177	0xbd57c9c2	-0.052682646
178	0xbd751f52	-0.059844323
179	0xbd80ec9b	-0.06295129
180	0xbd8997b5	-0.06718389
181	0xbd9baa90	-0.076008916
182	0xbd83a9d9	-0.0642888
183	0xbd154f6e	-0.036452703
184	0x3a0ae50e	0.0005298414
185	0x3cfb84e4	0.030703016
186	0x3d512fb6	0.05107089
187	0x3d822c46	0.06356101
188	0x3d939e55	0.07207934
189	0x3da568ae	0.08076607
190	0x3db690dd	0.08914349
191	0x3dca65d5	0.09882704
192	0x3b671708	0.003526153
193	0x3ad61f8e	0.0016336308
194	0x3abd4bdb	0.0014442162
195	0x3b9ca915	0.0047808983
196	0x3b34b7b6	0.002757532
197	0x3b9f2075	0.004856164
198	0x3c39363d	0.011304435
199	0x3c210d9e	0.009829907
200	0x3b6b67eb	0.0035920094
201	0xbc0a6c28	-0.008448638
202	0xbcbaf1b7	-0.022820337
203	0xbcfac1d9	-0.030610012
204	0xbcd29dfa	-0.025710095
205	0xbc962551	-0.01832834
206	0xbc4dfa30	-0.012571856
207	0xbb26ab78	-0.0025431793
208	0xbb7eb825	-0.0038867083
209	0xbc0e7bc1	-0.008696497
210	0xbc5e857d	-0.013581631
211	0xbc82e461	-0.01597804
212	0xbcadbd44	-0.021208413
213	0xbccd9743	-0.025096541
214	0xbd0342dc	-0.032046184
215	0xbd0ee989	-0.034890685
216	0xbce1ef55	-0.027579943
217	0xbcacff9a	-0.021117974
218	0xbca9219c	-0.020645909
219	0xbca4129a	-0.020028401
220	0xbd016b5c	-0.031596527
221	0xbd230ce4	-0.039807215
222	0xbd59dc48	-0.053188592
223	0xbd5a31d2	-0.05327017
224	0xbd4923f2	-0.049106546
225	0xbd572f00	-0.052535057
226	0xbd5c86b7	-0.05383941
227	0xbd742560	-0.059605956
228	0xbd870a4d	-0.065937616
229	0xbd9c37a4	-0.076278
230	0xbd8b6bdd	-0.06807683
231	0xbd492358	-0.049105972
232	0xbc76c402	-0.01506138
233	0x3cc1e56c	0.023668967
234	0x3d4d6587	0.050145652
235	0x3d888f32	0.06667937
236	0x3d9a0e98	0.07522315
237	0x3da8be72	0.082394496
238	0x3dba3225	0.090915956
239	0x3dcad6bd	0.09904239
240	0x3c7f843d	0.015595493
241	0xb9ee9d12	-0.00045511924
242	0xbacacc14	-0.0015472197
243	0x3ae9f664	0.0017849919
244	0x3ae6bbcd	0.0017603576
245	0x3a7071af	0.00091722136
246	0x3b287f36	0.002571059
247	0x3bdd3119	0.0067502377
248	0x3c06d04d	0.008228374
249	0x3a862318	0.0010233847
250	0xbc4af64e	-0.012387825
251	0xbce97305	-0.028497228
252	0xbcfdf34a	-0.030999798
253	0xbceb4f11	-0.028724225
254	0xbcb8b234	-0.022545911
255	0xbc4605ad	-0.012086314

Linear_Seasonal.bias f4 [48]
0	0x3d1d7eff	0.03845119
1	0xbcd788b1	-0.026310297
2	0xbd836034	-0.06414834
3	0xbd811dfe	-0.06304549
4	0xbc86aecb	-0.01644077
5	0xbd92ac4f	-0.071617715
6	0xbd7b493d	-0.061349142
7	0xbd9eb7e7	-0.0774992
8	0xba893a5e	-0.0010469665
9	0xbdd3c3a7	-0.10340052
10	0xbd576c99	-0.0525938
11	0x3cf37d2b	0.02972277
12	0xbd93c234	-0.07214776
13	0xbd498c46	-0.04920604
14	0xbc39b4e4	-0.011334632
15	0xbd97205f	-0.07379221
16	0xbd350623	-0.044195306
17	0xbd9a3fc5	-0.07531694
18	0x3df10005	0.11767582
19	0x3d89c90a	0.06727798
20	0x3d1f6a5a	0.038919784
21	0xbd450ef0	-0.04810995
22	0x3d9bfeed	0.076169826
23	0x3d9a5fa0	0.0753777
24	0xbd3e3a1f	-0.046442147
25	0x3dceec8d	0.10103712
26	0xbd9e5ff9	-0.07733149
27	0xbd09f077	-0.03367659
28	0x3d101e23	0.03518499
29	0xbd29b750	-0.041434586
30	0xba80b375	-0.0009819107
31	0x3df060d5	0.11737219
32	0x3e06ecda	0.13176289
33	0x3d36a00e	0.044586234
34	0x3dca3e1c	0.09875128
35	0xbd4da9f5	-0.05021091
36	0x3dd7a3b0	0.10529268
37	0xbc59fc58	-0.013304792
38	0x3e1b3989	0.15158667
39	0x3dc6511f	0.09683441
40	0xbd3cfe2e	-0.046140842
41	0x3d5ce503	0.05392934
42	0x3be98583	0.0071265115
43	0xbd57f946	-0.05272796
44	0x3d903e20	0.070430994
45	0x3df8ceb5	0.12148801
46	0x3daa298f	0.08308708
47	0x3c1a9795	0.009435554

Linear_Trend.weight f4 [48, 48]
0	0xbc2a6dac	-0.010402124
1	0xbc2c7ebd	-0.010528264
2	0xbc2ec84b	-0.010667871
3	0xbc316310	-0.010826841
4	0xbc3468a4	-0.011011276
5	0xbc378f25	-0.011203562
6	0xbc3b761d	-0.011441735
7	0xbc3fb6d2	-0.011701303
8	0xbc440e34	-0.011966277
9	0xbc4809af	-0.01220934
10	0xbc4b7482	-0.012417914
11	0xbc4e8386	-0.0126046
12	0xbc51c4ed	-0.012803298
13	0xbc5524af	-0.013009234
14	0xbc58f4d8	-0.013241969
15	0xbc5c6448	-0.013451643
16	0xbc5dc690	-0.0135361105
17	0xbc5c0487	-0.013428814
18	0xbc56afe4	-0.013103459
19	0xbc4d41ac	-0.012527864
20	0xbc3efafe	-0.011656521
21	0xbc2b88d5	-0.010469635
22	0xbc11762b	-0.008878271
23	0xbbdc7ff8	-0.0067291223
24	0xbb7d9cd3	-0.003869821
25	0xb8d76000	-0.0001026988
26	0x3b9742f2	0.004616135
27	0x3c278e39	0.01022678
28	0x3c87bebe	0.016570445
29	0x3cbffb3d	0.02343523
30	0x3cfa6c27	0.03056915
31	0x3d1ad826	0.03780379
32	0x3d37778e	0.04479175
33	0x3d524b4e	0.051341347
34	0x3d690c31	0.056896392
35	0x3d7c8df0	0.0616588
36	0x3d85ab23	0.06526782
37	0x3d8b7d81	0.06811047
38	0x3d903d35	0.07042924
39	0x3d943ec2	0.072385326
40	0x3d97a6a4	0.07404831
41	0x3d9a8566	0.07544975
42	0x3d9cf8c2	0.07664634
43	0x3d9f1ce3	0.077691816
44	0x3da10bdf	0.07863592
45	0x3da2d1c4	0.07950166
46	0x3da4708f	0.08029281
47	0x3da5eca8	0.08101779
48	0xbc4cf38b	-0.012509237
49	0xbc4e42a1	-0.012589128
50	0xbc4fc35d	-0.012680856
51	0xbc516bb8	-0.01278203
52	0xbc535e7f	-0.012900948
53	0xbc559534	-0.013036061
54	0xbc57ede2	-0.013179274
55	0xbc5ac669	-0.013352969
56	0xbc5dd2c6	-0.013539022
57	0xbc60acf5	-0.013713111
58	0xbc63035e	-0.013855783
59	0xbc64a865	-0.013956164
60	0xbc659e67	-0.014014817
61	0xbc666b56	-0.014063677
62	0xbc66fe47	-0.01409871
63	0xbc6781a4	-0.01413003
64	0xbc67404d	-0.014114452
65	0xbc64475d	-0.01393303
66	0xbc5d8b2a	-0.013521949
67	0xbc523bc1	-0.012831629
68	0xbc4160cb	-0.011802862
69	0xbc2a75fb	-0.010404105
70	0xbc0c6eea	-0.008571366
71	0xbbcb20af	-0.0061989645
72	0xbb4e292d	-0.0031457648
73	0x3a43e1d9	0.00074723136
74	0x3bb7a234	0.005604053
75	0x3c3a7f94	0.011382956
76	0x3c92b500	0.017908573
77	0x3ccc0d80	0.024908781
78	0x3d035f7c	0.032073483
79	0x3d202f97	0.039107885
80	0x3d3b6f9f	0.045760747
81	0x3d543047	0.051803853
82	0x3d6a1451	0.05714828
83	0x3d7d2ea2	0.06181205
84	0x3d8660c9	0.06561429
85	0x3d8c5c57	0.0685355
86	0x3d91050d	0.070810415
87	0x3d94df8d	0.072692014
88	0x3d982f78	0.07430929
89	0x3d9b0428	0.07569152
90	0x3d9d6a94	0.07686344
91	0x3d9f79e2	0.07786919
92	0x3da14a5f	0.07875513
93	0x3da2f3de	0.0795667
94	0x3da47aeb	0.08031257
95	0x3da5e375	0.081000246
96	0xbc41db62	-0.01183209
97	0xbc4340f5	-0.011917342
98	0xbc44b318	-0.01200559
99	0xbc46449f	-0.0121013215
100	0xbc480e71	-0.012210474
101	0xbc4a2602	-0.012338163
102	0xbc4cac54	-0.012492258
103	0xbc4f376a	-0.012647489
104	0xbc52298c	-0.012827288
105	0xbc550fe5	-0.013004278
106	0xbc577665	-0.013150786
107	0xbc59222e	-0.013252778
108	0xbc59d368	-0.013295032
109	0xbc59c38b	-0.01329125
110	0xbc596d8d	-0.013270748
111	0xbc58714a	-0.013210604
112	0xbc5714d2	-0.013127523
113	0xbc5416a0	-0.012944847
114	0xbc4dc917	-0.012560151
115	0xbc42ec1b	-0.011897112
116	0xbc326fa0	-0.010890871
117	0xbc1bf92c	-0.009519856
118	0xbbfd6193	-0.007732579
119	0xbbb37270	-0.0054762885
120	0xbb310a46	-0.002701418
121	0x3a449b17	0.0007499917
122	0x3ba2ed88	0.0049721636
123	0x3c2454ef	0.010030015
124	0x3c81ae34	0.015830137
125	0x3cb5d584	0.022196539
126	0x3cecc36b	0.028901776
127	0x3d127ac0	0.035761595
128	0x3d2e4a40	0.04255128
129	0x3d490894	0.049080446
130	0x3d619d1a	0.055081464
131	0x3d77315e	0.060349815
132	0x3d8453f1	0.06461323
133	0x3d8af852	0.067856446
134	0x3d8ff023	0.07028224
135	0x3d940759	0.07227964
136	0x3d977e53	0.07397141
137	0x3d9a81d0	0.07544291
138	0x3d9d1a28	0.076710045
139	0x3d9f4b1b	0.07777997
140	0x3da1301f	0.078705065
141	0x3da2e28e	0.07953368
142	0x3da46f45	0.080290355
143	0x3da5df42	0.08099224
144	0xbc4dd241	-0.0125623355
145	0xbc4f8212	-0.0126652885
146	0xbc50d909	-0.012747058
147	0xbc52309f	-0.012828975
148	0xbc53b8e3	-0.012922498
149	0xbc556a7f	-0.013025879
150	0xbc57844e	-0.0131541025
151	0xbc59d5d2	-0.013295608
152	0xbc5c0832	-0.013429688
153	0xbc5e5a96	-0.013571402
154	0xbc606d2d	-0.013697905
155	0xbc61e72b	-0.013788025
156	0xbc627ed5	-0.013824184
157	0xbc61f018	-0.013790153
158	0xbc604775	-0.013688912
159	0xbc5dea00	-0.0135445595
160	0xbc5a99ff	-0.01334238
161	0xbc5617f7	-0.013067237
162	0xbc4f5e85	-0.012656813
163	0xbc446c10	-0.011988655
164	0xbc33b286	-0.010967856
165	0xbc1c9387	-0.009556658
166	0xbbfc87ea	-0.007706632
167	0xbbafd096	-0.0053654416
168	0xbb241103	-0.0025034554
169	0x3a7c8097	0.00096321985
170	0x3ba81266	0.0051291464
171	0x3c247b70	0.010039195
172	0x3c807753	0.015681898
173	0x3cb37b18	0.021909282
174	0x3ce98bda	0.02850907
175	0x3d109885	0.035301704
176	0x3d2c8823	0.042122018
177	0x3d47c078	0.048767537
178	0x3d613994	0.05498655
179	0x3d779ea3	0.060454022
180	0x3d846dbf	0.06466245
181	0x3d8b18cc	0.06791839
182	0x3d90567b	0.07047745
183	0x3d94e26c	0.07269749
184	0x3d98575d	0.07438538
185	0x3d9b4cad	0.07582984
186	0x3d9de2a0	0.07709241
187	0x3da01ce7	0.07818013
188	0x3da205c4	0.07911256
189	0x3da3b2f2	0.079931155
190	0x3da531d1	0.08066142
191	0x3da692b5	0.08133451
192	0xbc5f5d60	-0.013633102
193	0xbc614cde	-0.013751237
194	0xbc62e877	-0.013849369
195	0xbc643160	-0.013927788
196	0xbc6582b0	-0.014008209
197	0xbc66e733	-0.014093208
198	0xbc687d6a	-0.014190057
199	0xbc6a41ea	-0.014297942
200	0xbc6c19ac	-0.0144104175
201	0xbc6da3e7	-0.014504409
202	0xbc6f1729	-0.014592924
203	0xbc702632	-0.014657544
204	0xbc7069d2	-0.014673667
205	0xbc6f8afb	-0.014620538
206	0xbc6d220d	-0.01447345
207	0xbc692086	-0.014228946
208	0xbc63f782	-0.013913991
209	0xbc5cf41a	-0.013485933
210	0xbc540025	-0.012939488
211	0xbc47cc46	-0.012194699
212	0xbc3638e4	-0.011121962
213	0xbc1df9c7	-0.009642071
214	0xbbfc1c82	-0.007693828
215	0xbbab1a04	-0.005221607
216	0xbb0faa68	-0.0021921638
217	0x3abc9338	0.0014387136
218	0x3bbacd35	0.005700732
219	0x3c2e2e93	0.010631221
220	0x3c84b960	0.016201675
221	0x3cb708ae	0.022343006
222	0x3cec56e1	0.02885002
223	0x3d1185b7	0.03552791
224	0x3d2cc522	0.042180188
225	0x3d471e7b	0.048613053
226	0x3d5facfb	0.054608326
227	0x3d75c811	0.06000525
228	0x3d83c362	0.06433751
229	0x3d8ac69b	0.06776162
230	0x3d90586d	0.07048116
231	0x3d94d7f8	0.07267755
232	0x3d9890fe	0.0744953
233	0x3d9bba0b	0.07603844
234	0x3d9e6faa	0.07736142
235	0x3da134ac	0.078713745
236	0x3da3414a	0.07971437
237	0x3da5077d	0.08058069
238	0x3da69487	0.08133798
239	0x3da7f6e6	0.08201389
240	0xbc568b3f	-0.013094722
241	0xbc597185	-0.013271694
242	0xbc5bf30d	-0.013424647
243	0xbc5e1a8d	-0.013556135
244	0xbc5ff4dd	-0.01366922
245	0xbc61ca30	-0.013781115
246	0xbc63ce46	-0.01390416
247	0xbc65cc2e	-0.014025731
248	0xbc67d5a3	-0.014150056
249	0xbc69aa5d	-0.014261809
250	0xbc6ad6fe	-0.014333485
251	0xbc6bac34	-0.014384318
252	0xbc6bfa47	-0.0144029325
253	0xbc6b43c6	-0.01435942
254	0xbc689120	-0.014194757
255	0xbc63ed34	-0.013911534

Linear_Trend.bias f4 [48]
0	0xbd17458b	-0.036931556
1	0xbd29cd55	-0.041455586
2	0x3d90c8e6	0.07069568
3	0x3d862c7e	0.06551455
4	0xbba8af99	-0.005147886
5	0x3da87d07	0.08226972
6	0xbd65fc00	-0.05614853
7	0x3db24a85	0.0870562
8	0x3d1289d3	0.03577597
9	0x3df09161	0.11746479
10	0xbcb0e037	-0.021591289
11	0xbbfe4cd4	-0.0077606235
12	0x3da1cae8	0.079000294
13	0xbc1c8696	-0.009553572
14	0x3d1eb9b4	0.03875132
15	0x3dce7f1f	0.1008284
16	0x3d5acc43	0.053417455
17	0x3dd8e90a	0.10591324
18	0xbdadebce	-0.08492242
19	0xbc9408cc	-0.0180706
20	0x38ce5460	9.8385615e-05
21	0x3db594ef	0.088662975
22	0xbd01803a	-0.031616427
23	0xbcee650f	-0.029100923
24	0x3da5a154	0.080874115
25	0xbd4a480b	-0.04938511
26	0x3df3ca52	0.11903824
27	0x3db79fae	0.08966003
28	0x3cff5ddf	0.03117269
29	0x3dd05abd	0.10173557
30	0xbd7c6bdf	-0.06162631
31	0xbd535d62	-0.05160273
32	0xbd889ffc	-0.066711396
33	0x3cafd244	0.021462567
34	0xbcd34d7e	-0.025793787
35	0x3c48eb68	0.0122631565
36	0xbce1590f	-0.027508287
37	0x3dbed9a4	0.093188554
38	0xbdab11b8	-0.08352989
39	0xbc48ca1f	-0.012255221
40	0x3d848017	0.06469744
41	0x3d14abf9	0.03629682
42	0x3db43939	0.08799977
43	0x3d875848	0.06608635
44	0xbd37391f	-0.04473221
45	0xbd9336a4	-0.07188156
46	0x3c95dc6a	0.018293578
47	0xbcdd68c6	-0.027027499
