checkpoints/long_term_forecast_coffee_Pyraformer_custom_ftS_sl24_ll12_pl24_dm32_nh8_el3_dl2_df64_fc3_ebfixed_dtTrue_Exp_0/checkpoint.pth (torch, 792491 bytes, 68 tensors)

encoder.layers.0.slf_attn.query_projection.weight f4 [32, 32]
00000000: 0e89 06be 2cd3 f63b e63f b53d 7edf 953d
00000010: faf1 e13c 7afe f7bd abe8 23be 182f 293e
00000020: 6e66 90bd 8bd6 14be 14a9 e63d 0a28 2cbe
00000030: 10a9 e33d 9010 08be e8d1 af3d 859a 3fbd
00000040: 4959 793b 534d 92bd 74ea d03d 66ab b13d
00000050: b6e2 d73d b3c9 93bd a75e 353e e3a7 f0ba
00000060: d191 42bd e8fa 23be 1981 fa3d 72a2 21be
00000070: 23e1 e0bd 92e0 65bd 9d57 813d b350 8e3d
00000080: 1f10 ed3d 582f 573b 5173 a73d c18e f63d
00000090: 9469 30be c678 12be ef67 32be 283c f9bd
000000a0: 6237 bb3d 8eb9 233e 7211 6a3d 4fb1 0fbe
000000b0: 14e2 b13d ed05 c63d 8c98 213e e723 27be
000000c0: 50a2 ebbc b5ca b9bd 3331 213e e941 c43d
000000d0: 3c23 d33c 69ac 793c f11a 9b3d fd52 09be
000000e0: f2b9 68bc 7182 06be 692b 713d c4d0 633d
000000f0: 290f 21be a988 0ebc 0577 a53d 9842 b53d
00000100: 7967 2a3e c760 26be 29b8 71bd bea4 8dbd
00000110: eae5 1bbe f187 29be 5587 06be 2e4d a53d
00000120: 0318 1dbe ab97 9dbd 5140 f7bd dbcf 0ebe
00000130: 1d81 263e ac98 81bc eed5 69bd f29c 213e
00000140: 74b3 cbbd 33cf 9fbd 17cc 72bd cd37 f6bd
00000150: 3315 acbd 6774 22bd 5aef 1c3c 7ac5 cebd
00000160: 41e5 7bbb 5008 2f3e 2937 9337 b132 96bc
00000170: d3ba 36be 7a10 07be 3d58 c03d 0f48 df3d
00000180: 9ba8 2abe 948a 253d 2891 1b3d d4f6 8abd
00000190: 613d 0f3e c877 e03c df83 0abe 8845 1a3e
000001a0: c459 ad3d 039d b3bd 4bbc 413c 1c7f 063e
000001b0: be46 073e 9a73 a33d 2886 483d a3de dbbb
000001c0: 1da5 cf3c a11d 00be dc10 ac3b 3ddd 2fbe
000001d0: 00ef d63d a3e6 ffbd 7243 ebbd fdeb 0e3e
000001e0: ac0d 6ebd eb7d e5bd c30f 11be cd8d 9e3d
000001f0: 4f6c 21be 0991 0b3e 5d19 543d 9ecc 253e
00000200: 879f 84bd 0153 1cbe 162f 7bbc 68fa 113e
00000210: b62c b3bd a3a0 23be 016d 0d3e 20ae 023e
00000220: 8ebe 123e b68f e53d 60a8 523b c8e6 13be
00000230: a53a fbbd 5523 abbd 8cf3 f4bd 9beb 08be
00000240: c627 043e 187a 0c3e 9bb6 e3bd 8814 3abc
00000250: 1f79 313e 8f74 b13d 7b7e 01bd 0180 54bd
00000260: 63e1 b43d 508f 85bd a3c4 0abe 85c7 47bd
00000270: 764e e93d e3ac 9bbd e77d 02be 6b15 8abd
00000280: 3344 80bd 203f 04be 31b4 2dbb 416c b63d
00000290: cb3a 2a3e 4245 453d 6877 0b3e e265 873d
000002a0: 3302 35bd bfb6 0abe cc7e 2abd f781 ae3d
000002b0: 0c9e 0e3d ad0f 5abd 3c46 27bc c7d7 7c3d
000002c0: b3d9 ccbc 2760 0a3e 0340 ecbd 2d25 b53c
000002d0: 1368 ba3d 200d 0f3e 9480 c83c 5ace 373c
000002e0: 859b 1c3e 2b56 fcbd b723 aabd 0d7a d4bd
000002f0: ea42 2f3e a8fb 213c fd78 17be 4d08 713c
00000300: ac6c 2bbe b091 cc3d c5b8 093e cf59 a03d
00000310: 8fbc 10bd 29d8 bfbd dd51 223e 37f0 dabc
00000320: 40f6 983d 7ec7 6dbc b538 103e 49e5 ecbc
00000330: d3be de3d 46be 09be c982 19be 2dfc 0b3d
00000340: 3ddb 133e 13fb e0bd 6f73 f83d c63e c33c
00000350: eb8d 1abe 81f9 dcbd 6421 9cbc 8ed6 cd3c
00000360: b2f6 973d a1d9 273e 9fa5 213e cbbf 17be
00000370: 4d1a c53d b2a5 53bd 45f8 75bc b2f5 243e
00000380: 535d 0fbd 6c7d 9abd 7cbe d13d c23f 98ba
00000390: b700 653d 10ab 3f3c 6eff 243e ea2c 0d3e
000003a0: 7ef3 643d 77d7 ad3c bf0c 703d 85bf 8abd
000003b0: dd20 d73d 3ed7 153e ee1d 113e de7c d3bd
000003c0: 1fd0 9dbd a95b 163e 904a 0b3e 8047 dd3d
000003d0: 73fa 0f3e 6f2d 273e 72da c9bd aa03 0cbe
000003e0: 557d 93b9 fc24 d43d af26 98bd 7d75 dabd
000003f0: bb20 2ebe 8e99 f43c 9a24 d83c b53d bbbd
-0.1313822 0.007532498 0.08850078 0.073180184 0.027581204 -0.121090844 -0.16006725 0.16521871
-0.07050787 -0.14534967 0.11262718 -0.16812149 0.111162305 -0.13287568 0.08584958 -0.04677822
0.0038047603 -0.07143655 0.102009684 0.0867527 0.105412886 -0.072162054 0.17711888 -0.0018360581
-0.047502343 -0.16013682 0.12231655 -0.15784624 -0.109804414 -0.05612237 0.06315539 0.06948986
0.115753405 0.0032834616 0.08176292 0.12038947 -0.17227775 -0.14303884 -0.1742246 -0.12169677
0.09141423 0.15988752 0.057145543 -0.14032482 0.08685699 0.09669099 0.15780848 -0.1632229
-0.02876392 -0.090718664 0.15741424 0.09582884 0.025773637 0.01523886 0.07573498 -0.13410564
-0.014204489 -0.13135697 0.05887929 0.055619016 -0.1572844 -0.0086995745 0.08079342 0.088505924
0.16641034 -0.16247855 -0.05901352 -0.06916188 -0.15224424 -0.16555764 -0.13137563 0.080713615
-0.15341191 -0.07694944 -0.12072814 -0.13946478 0.1626019 -0.01581987 -0.057088785 0.15782526
-0.09946337 -0.07803192 -0.059276666 -0.12022362 -0.08402481 -0.03966179 0.00957855 -0.100962594
-0.0038436207 0.17093015 1.7549452e-05 -0.018334718 -0.17844705 -0.13189879 0.0939183 0.10902416
-0.1666588 0.04041536 0.03798023 -0.0678536 0.13988258 0.027400866 -0.13526867 0.15065587
0.08464387 -0.08770182 0.011824678 0.13134426 0.1321058 0.079810336 0.048956066 -0.00670989
0.025347287 -0.12511303 0.005251033 -0.1717424 0.104948044 -0.12495162 -0.114874735 0.1395721
-0.058118507 -0.112056576 -0.14166169 0.0774189 -0.15763973 0.13629545 0.051782 0.16191337
-0.0647574 -0.15266038 -0.01533105 0.14255679 -0.08748762 -0.15979247 0.13811113 0.12761736
0.14330503 0.11209051 0.0032143816 -0.14443505 -0.12267045 -0.083563484 -0.119605154 -0.13371126
0.12905797 0.1371845 -0.111188136 -0.011357434 0.1733136 0.0866481 -0.03161476 -0.051879887
0.088320516 -0.06521475 -0.13551573 -0.04877426 0.11391918 -0.07601335 -0.1274334 -0.067423664
-0.06263008 -0.12914705 -0.0026505108 0.089073665 0.1662399 0.048161753 0.13619769 0.066112295
-0.04419155 -0.13546275 -0.04162483 0.085208826 0.034818694 -0.053237606 -0.010209616 0.06172922
-0.02500615 0.13513242 -0.11535647 0.022112453 0.09101882 0.1396985 0.024475373 0.011218632
0.15293701 -0.12321123 -0.08307593 -0.10374842 0.1711537 0.00988666 -0.14792247 0.014711452
-0.16740674 0.09988725 0.1344939 0.0782963 -0.035336073 -0.09367401 0.15851541 -0.026725871
0.074688435 -0.014512895 0.14084132 -0.028917925 0.108762406 -0.1345149 -0.14991297 0.03417604
0.14439102 -0.109853886 0.12131392 0.023833644 -0.150932 -0.107897766 -0.01905889 0.025126722
0.074201 0.16391613 0.15785836 -0.14819257 0.09624157 -0.05167169 -0.015012805 0.1610935
-0.03500111 -0.075434536 0.1024141 -0.0011615681 0.055908885 0.011698499 0.16113064 0.13786665
0.055896275 0.021220906 0.058605906 -0.06774811 0.10504315 0.1463289 0.14171574 -0.10326551
-0.077057116 0.14683403 0.13602662 0.10804653 0.14060383 0.16325925 -0.09856118 -0.13673273
-0.00028131405 0.10358617 -0.07429253 -0.1066694 -0.17004673 0.029858377 0.02638464 -0.09142629

encoder.layers.0.slf_attn.query_projection.bias f4 [32]
00000000: 5d7a 1a3e 8b44 e63c 6f4d 213e 2729 f6bd
00000010: c310 fabd 4a4c 1cbe 4490 ddbd 359b cb3d
00000020: 526b b43d f0a2 26be 87c9 0dbe e028 f43d
00000030: 86ab 2f3e 0612 da3d 7f7d e93c c431 86bd
00000040: 2b13 d53c 4abf f73d 7b42 1abe de2c 95bd
00000050: 9370 ad3c 2129 2ebe 20f7 26bb 9b09 c73c
00000060: 6c63 623d ed15 abbd ebd4 dd3d 9bdd 29be
00000070: 39c9 31be b2aa f33c 9e80 cd3d 91f3 a83b
0.1508574 0.028108856 0.15752195 -0.12019568 -0.12210228 -0.15263477 -0.10818532 0.09941713
0.08809532 -0.16273093 -0.13846408 0.11921859 0.17155275 0.10647969 0.028502224 -0.06552461
0.026010117 0.12097032 -0.15064423 -0.07283948 0.021171844 -0.17007877 -0.0025476888 0.024296572
0.055270597 -0.083537914 0.108316265 -0.16588442 -0.17361917 0.02974448 0.100342974 0.0051559885

encoder.layers.0.slf_attn.key_projection.weight f4 [32, 32]
00000000: e9d3 063e 3af8 b93d 4141 e63d 2ec3 01bd
00000010: 27be ee3d 4e33 0fbe 7a1d bfbd 42a5 adbd
00000020: 4ab3 d03d c64b 1a3e e99a c7bd a399 c73d
00000030: 55a2 c8bd 8961 403d 00b3 093e 4fbf 403d
00000040: 30ee 4cbc a94d 843a 1135 83bc 37e2 2fbe
00000050: 985f 083d 697f 2f3a 6957 343e 534e 0cbe
00000060: 00eb 233e ee41 243e eed7 21be fe45 06bd
00000070: d401 993d b916 9f3d 86ab 99bd 46b4 f5bd
00000080: 5dae aebd 83ea 89bd f030 923d 98f7 9fbc
00000090: 8887 913d 8350 07bd c16c 2b3d 9628 9a3d
000000a0: f6dc 18be 33d5 98bd 1193 32be a116 90bd
000000b0: 519d 02be fb04 2fbe 7049 253e 9c3e 91bd
000000c0: 7fee 023b 3bb1 eabd a96e ec3b 957b 2bbe
000000d0: 36c6 19bd 23c7 d6bc 1be3 033d 1a47 0c3c
000000e0: b079 e33d cf4d 80bb 8789 9abd a568 2f3e
000000f0: e821 f1bc a6f3 1d3e 410c 0abe 1b2d c9bd
00000100: 8804 1bbe b469 eebd 522e 083c 9945 053e
00000110: 8f69 09be 93a8 573d 624d fb3d 584d 303e
00000120: d1b7 6c3d 53bc 99bd 8510 20be 654e ca3c
00000130: 586a c93d c16c 9f3c 3a95 ad3d 441a 1b3e
00000140: e9bb 9ebc e6dc fbbd 9290 c3bc 251e 6dbd
00000150: 21b5 c63d 2d01 b03d 55e1 a4bb ba8c c73d
00000160: db44 32be db9b fcbd dcdc 043c d46b 0f3d
00000170: 9e41 133e f353 443c d5e9 d8bd ab12 15bd
00000180: fe11 f5bd 0500 b0bd 2dcc 6dbd 6d24 d53d
00000190: ffed 2c3e 3235 033d cece 01be fb3e 26be
000001a0: d2ac a3bd cc9b 11be e4be f3bd 126e 21be
000001b0: ca48 ed3c c171 a73c ef24 94bc 7ccb 683c
000001c0: c628 bc3c 32b1 423d 475f 483c 23e7 2fbd
000001d0: 6f45 32bc a0b7 26be bf01 02be 675c ddbd
000001e0: d3de 023e d553 0f3e fcd4 03be 0701 a13d
000001f0: a695 41bc 4aac 293d 3e60 15be 4d4b 2cbe
00000200: 2dda b8bd 260e 853d 0c70 133d 28a3 adbc
00000210: a151 4fbd 9c9c 843b e82b b7bd 532c 6e3d
00000220: 35a8 453d a21b 9cbd 846b 763d 6e64 07bd
00000230: 4a37 4c3d 22ab 753d 4f2c 183e 3ec0 d23d
00000240: 1b6e 20be d084 c63c 01b4 a9bc 0d5e dfbd
00000250: 1317 22be 9dde 183e 86b4 19be d2ac 013e
00000260: 347a b03d e0c9 94bd 3070 a3bd 778f bb3d
00000270: 9f30 a63d 6286 89bc c8b8 6dbd f69f 85bd
00000280: e9fa 133b 1a6a 21be 9e7b 59bd 4830 ccbd
00000290: 3107 ffbd e9aa 813d 11ce fdbd dde9 6fbd
000002a0: 5f76 873d ddd2 a63d bc48 eabb 9c8e 29be
000002b0: be56 b43b 9924 febd cc02 0ebe 39c5 983d
000002c0: 6701 1c3e 8b37 ed3d 846d 24be 487b acbd
000002d0: 3881 e4bd eb40 013e 751e 243e 85ea fbbd
000002e0: d02d eabd 9126 353e b764 b73d 5dd0 4dbc
000002f0: 2f37 093e 9298 f83d cedb 0dbe 8d6e 06be
00000300: 602c 433d 164f 0b3e 37a8 b43c 0047 4abc
00000310: bfb2 e63d 9b36 00be f228 1dbe 7adc 9c3d
00000320: 8c3a 91bd f371 24be f3aa 01be 4170 77bd
00000330: 7742 7dba e391 683b 9d8c 10be 5e32 223e
00000340: a86a a73d 18d0 0d3e 8c1e ddbd 7e74 223e
00000350: d47e 143d 73cd debd 5b65 c93c dabd f73d
00000360: 658e a2bd 74f3 ee3d 9711 d3bd bd5b 2bbe
00000370: 31fa 193e 7d31 19bd b4f3 07be 55f3 c63d
00000380: 2d6e cb3d 7779 53bd 250b 283e b6fa 15be
00000390: 56ae ed3d e58c 923c b477 1b3e 2db0 d7bd
000003a0: 1c8f afbc fd3e 35be 1275 31be ed8d a03c
000003b0: 7758 de3d beba b43d b2e1 f1bd 8ea0 e93b
000003c0: eaca 8dbd 70be a03b c97b d4bd 1c68 38bd
000003d0: 95ed a63d 0431 cc3d c955 fcbb 726f 983d
000003e0: f05b ee3d 392a 0bbe c955 a1bd b249 d43c
000003f0: 427d bebd e222 efbd 67aa 0e3c 5b57 dc3c
0.13166775 0.090805486 0.11242915 -0.03168028 0.116573624 -0.13984415 -0.09331794 -0.08478786
0.10190447 0.15067968 -0.09746344 0.09746101 -0.097965874 0.046968017 0.1344719 0.047057446
-0.01250796 0.0010093945 -0.016016515 -0.17176138 0.03329429 0.0006694706 0.1761147 -0.13701753
0.16007614 0.16040775 -0.15805027 -0.032781594 0.07471052 0.07768006 -0.075034186 -0.11997275
-0.08529351 -0.06734183 0.0713824 -0.019527242 0.07105929 -0.033035766 0.041851763 0.075272724
-0.1492804 -0.074625395 -0.17438914 -0.07035566 -0.12755324 -0.17091744 0.16141295 -0.0709202
0.001997858 -0.11459585 0.00721534 -0.16746362 -0.037542544 -0.026218003 0.032199007 0.008561874
0.111071944 -0.0039155255 -0.075457625 0.17129762 -0.029435113 0.15424976 -0.13481237 -0.09823056
-0.15138447 -0.11641255 0.008311825 0.1301483 -0.13419174 0.052651 0.12270619 0.17217004
0.05779249 -0.07506623 -0.15631302 0.024695585 0.098347366 0.019461038 0.08475728 0.15146738
-0.019376712 -0.122979924 -0.023872647 -0.057890076 0.09702516 0.08593974 -0.0050317445 0.09743638
-0.17409079 -0.123344146 0.008109298 0.035014942 0.143805 0.011982906 -0.10591475 -0.036394756
-0.11966322 -0.08593754 -0.058056045 0.10407338 0.16887663 0.032033153 -0.12676546 -0.16234963
-0.07991947 -0.14219588 -0.11901644 -0.15764645 0.028965373 0.020439984 -0.018084018 0.014208671
0.022968661 0.047532268 0.012229747 -0.04294504 -0.010880812 -0.16280985 -0.12695979 -0.1080864
0.12780313 0.13996823 -0.12874216 0.07861524 -0.011815464 0.041424073 -0.14587495 -0.168256
-0.09025989 0.06496839 0.035995528 -0.021195963 -0.050614957 0.0040469896 -0.08943921 0.05814774
0.048256118 -0.07622458 0.06016113 -0.03305476 0.049857415 0.059977658 0.14860652 0.102905735
-0.15667002 0.024233252 -0.020715715 -0.10906611 -0.15829115 0.1492867 -0.1501027 0.12663582
0.086170584 -0.07265067 -0.079803824 0.09158223 0.081147425 -0.016787712 -0.05803755 -0.06524651
0.0022579974 -0.15763131 -0.053096406 -0.099701464 -0.124525435 0.06331427 -0.1239282 -0.05857264
0.06614374 0.08145688 -0.007149784 -0.16558307 0.0055035045 -0.12409324 -0.13868254 0.07459492
0.1523491 0.115828596 -0.16057402 -0.084219515 -0.11157459 0.1262242 0.16027243 -0.123005904
-0.11434519 0.17690493 0.08954757 -0.012561885 0.13399957 0.121384755 -0.1385338 -0.1312811
0.04764974 0.13604388 0.022052867 -0.012346029 0.11264562 -0.1252083 -0.1534765 0.0765924
-0.07091245 -0.16059093 -0.12662868 -0.060409788 -0.0009661088 0.0035487346 -0.1411614 0.15839526
0.0817464 0.13848913 -0.10796842 0.1586475 0.036253765 -0.1087903 0.024584463 0.12096758
-0.07937316 0.11667529 -0.10306089 -0.16734214 0.15036847 -0.03740071 -0.13276559 0.09714381
0.09933124 -0.05162951 0.16410501 -0.1464642 0.116055176 0.01788945 0.15182382 -0.1053165
-0.021430545 -0.1769981 -0.17329815 0.019598925 0.10856717 0.08824681 -0.11810626 0.0071297353
-0.069234684 0.0049055144 -0.10375173 -0.04502116 0.08150784 0.099702865 -0.007700656 0.074431315
0.116386294 -0.13590325 -0.0787769 0.025914047 -0.09301235 -0.11676575 0.008707619 0.026897123

encoder.layers.0.slf_attn.key_projection.bias f4 [32]
00000000: 26f9 1cbe f939 223d cfce a3bd 5126 67bd
00000010: 3147 e7bd 574b 173e 9510 11bb 147c 923d
00000020: 4f54 893d c7f0 03bd 1582 313e 3860 39bb
00000030: 536f 18be d3b8 33be d8d9 ad3d 4eea 2d3e
00000040: b6b7 e13d 05ae 37bd f978 313e 5d12 0d3e
00000050: 7511 ad3d c6a4 e03d 93a7 1b3d 3cce d2bd
00000060: 4d6d 273e e3b9 99bd 17a8 ebbd 1ac2 b33d
00000070: f85e 6dbc b021 183e de1b adbd e7e1 82bc
-0.15329418 0.03960607 -0.0799843 -0.056433026 -0.112928756 0.14774834 -0.0022135128 0.07152572
0.06705534 -0.032212045 0.17334779 -0.002828611 -0.14886217 -0.17550974 0.08488816 0.16983911
0.11021368 -0.044843692 0.17331304 0.13776536 0.08450595 0.10968928 0.038001608 -0.10293242
0.16350289 -0.07506158 -0.1150667 0.08777256 -0.014487974 0.14856601 -0.08452581 -0.01597686

encoder.layers.0.slf_attn.value_projection.weight f4 [32, 32]
00000000: e257 0ebe e7c1 83b9 240a c03d d7ae 16be
00000010: ff64 94bc 37f6 c33d 03e4 df3d 05e1 08bd
00000020: c25e a8bd 704e bb3b 5b1a 0d3e 84f1 633c
00000030: 9af9 b2bd 5b14 7bbd 28df adbd 50e8 cb3d
00000040: 3ce9 ad3d 0430 6ebd 2490 f93d ea57 1e3e
00000050: 0d17 e73c 3754 1ebe 9e56 2b3e e96d 593c
00000060: 8dc7 9abd 3e8e 663d feea 0e3e 196b 1e3e
00000070: 055c f3bc a557 173e 4553 ce3c c2ea 39bc
00000080: 79ef ab3d b015 46bd f56c 85bc 8e96 2e3d
00000090: 89b4 963d 0be2 173e 0b2e 98bd deb6 55bd
000000a0: 8383 1dbd 1e3c 2f3c b774 7cbd 74b6 383d
000000b0: 2dc7 cfbd 807d 0ebe 8cf0 953d 40df 24be
000000c0: 4015 d7bd 3719 4b3d 5906 2fbe a06c 913c
000000d0: bbd3 043e 6a1c 3fbd 5c48 1dbe 90c3 b0bd
000000e0: b40e dabd d628 3dbd 8451 6abd 098e 22be
000000f0: 6412 3bbd bbfa abbd 2250 d93d 12a1 adbd
00000100: 9491 7d3d 0110 dabc 46fe 2cbe 7073 8abd
00000110: c13b 14be 7e30 df3d 6d49 b6bd 4291 99bc
00000120: cdc1 23bd e64c 03bd 873d 753d 9f88 22be
00000130: 66ae 6fbc 467e b43c a3a1 2ebd d107 013d
00000140: 3575 e8bd 3f52 2e3e 7ca4 e5bd 8fdb 08be
00000150: 7b40 163e 3b39 b2bd 1b6e fc3c 72f9 fb3d
00000160: 559e dc3d 6609 123e 9b8b debd d72c c83c
00000170: b6c5 09bc 17f4 dabd 5982 7a3d 8f74 8ebd
00000180: 6243 933d cf07 2fbc 7e08 b33c dd10 6fbd
00000190: 0dc0 273e 15b6 cabd 787e 8f3c 45f5 23be
000001a0: 90eb 0cbe 8ebc b7bd 4c84 0bbe 8176 213d
000001b0: d5b6 68bd 84aa 24be 4b40 d73d cf4b 00be
000001c0: 65e7 053e ed2d eabd 3e96 c73d 2fc1 d93d
000001d0: c654 9abb b48c f43d df72 a2bc 8aea 893d
000001e0: 9e13 51bd 9690 983d 3432 e93d cb24 98bd
000001f0: 0d5b 76bd 2132 33be 1f59 c2bd 9920 8cbc
00000200: 3063 99bd c8b1 f0bd 7a8c 0ebe 182b 123e
00000210: d83d 21be b37f 05be cee6 6cbd 3280 103e
00000220: 10c7 fbbd 0cbf 87bd a2d6 ddbd 92ce 47bd
00000230: 5f9d 963d 7e1e 27bc 4b7b 91bd 18b3 e5bb
00000240: dc28 d83d 6105 d83d 456b 81bc 4290 f83d
00000250: 19c1 dfbd 2de2 f5bd 22bf d83d 0690 4f3d
00000260: 4778 70bd 853e 7dbc 1414 003c 3fc9 14be
00000270: 96ef b5bd 3f6d 0bbe 0132 7c3d f01f 463d
00000280: c4ba 963d 357d 273e 686e 2dbe d616 9abd
00000290: b82c aabd 3c52 af3d 6346 80bd cdb5 453d
000002a0: 95b8 1b3e 6650 05bb 5d9c 0ebe bbdd 883d
000002b0: 6fe6 db3d 4e89 37bd 98ab 23be 690f 173e
000002c0: dfb8 b5b9 9a0f 04be 0c25 41bd 9ed8 f13d
000002d0: 465e fcbc 8d73 07be f48b 963d 7a0f dbbd
000002e0: 19f3 123c 557f 023d 1448 0fbe 8cc4 a5bd
000002f0: 37e4 05be e3fa 033e feab 34bc 6d8b d5bc
00000300: 40c2 643d c885 f8bd b281 d3bd 327f 14be
00000310: 179f c8bd c010 d1bc 987d 2fbe a810 1bbe
00000320: 167e b93d 39e5 f5bd 1eb6 29be a843 5f3b
00000330: e746 2bbe 9e7f 1abe 39e8 88bd 6fdb 4dbd
00000340: 568a 0bbe 2eb1 9fbd 8415 343e 6688 2c3e
00000350: 5d21 bf3d 6835 47bd 5d41 563d 24d0 a73d
00000360: 4e52 07be 62ac bd3d 422d 21be 96c6 a8bd
00000370: a9e1 f53d db08 bcbd 6a00 d9bd 0557 043e
00000380: 03a5 da3d 46b5 333a 9850 263e 73a7 28be
00000390: 87d8 d13d bea3 81bc 1858 e63d 69fb e43d
000003a0: 6a5a 12be cb41 df3d e548 8f3d 51ab 1ebe
000003b0: ca05 bebb 489d 733d badf 043e 5b62 bebd
000003c0: 52c8 1cbe 772d c8bd bc95 2abd c836 0f39
000003d0: 3251 b7bd 4daf fbbb dd78 d23d c2e1 16be
000003e0: 3136 043d 306b 183e b0a2 ebbb 95e8 69bd
000003f0: 784c 203e 46f1 433d 9527 603d e37f 6cbd
-0.13900712 -0.00025130736 0.09376934 -0.14715134 -0.018114565 0.09568446 0.10932162 -0.03341772
-0.082211986 0.0057161376 0.13779585 0.013912562 -0.08739014 -0.06129871 -0.08489829 0.099564195
0.084917516 -0.05815126 0.12185696 0.15463224 0.028209234 -0.15461813 0.1673226 0.0132708335
-0.075575925 0.056287996 0.1395683 0.15470542 -0.029706964 0.14779527 0.02518619 -0.0113474745
0.08395285 -0.048360527 -0.016287306 0.04262405 0.07358653 0.14832322 -0.07430657 -0.05217635
-0.038455497 0.010695485 -0.061634745 0.045095876 -0.10145412 -0.13915062 0.07321271 -0.16100788
-0.105021 0.049584594 -0.17092265 0.017751992 0.12971394 -0.046657957 -0.15359634 -0.086310506
-0.10647336 -0.046181522 -0.057206646 -0.15874495 -0.045671836 -0.083974324 0.10610987 -0.08477987
0.061906412 -0.02661896 -0.16893873 -0.06760299 -0.1447592 0.10897921 -0.089007236 -0.018746022
-0.039979745 -0.032055758 0.05987313 -0.1587243 -0.014628982 0.022032868 -0.042634618 0.031501595
-0.113504805 0.17023562 -0.112130135 -0.13365005 0.14673035 -0.08702322 0.030814221 0.12303437
0.10772387 0.14261398 -0.108664714 0.024435444 -0.008408954 -0.10691088 0.061159465 -0.069558255
0.071905866 -0.010683014 0.021854635 -0.05836569 0.16381855 -0.09898011 0.01751636 -0.16011532
-0.13761735 -0.08971511 -0.13624686 0.039419655 -0.056814987 -0.16080672 0.1051031 -0.12528919
0.13076551 -0.11434541 0.09745453 0.1063255 -0.004709813 0.119408995 -0.019830165 0.06734188
-0.0510441 0.074494526 0.113865286 -0.07428893 -0.060145427 -0.17499591 -0.09489655 -0.017105388
-0.07489622 -0.11752659 -0.13920775 0.14274251 -0.15746248 -0.13036995 -0.0578373 0.14111403
-0.122938275 -0.06628236 -0.108319536 -0.048780985 0.07354235 -0.010200141 -0.071035944 -0.007009875
0.10554668 0.10547901 -0.01579822 0.1213689 -0.10925502 -0.1200603 0.10583331 0.05067446
-0.058708455 -0.0154568 0.007817287 -0.14529894 -0.08883588 -0.13615893 0.061571125 0.0483703
0.073598415 0.16356356 -0.16936648 -0.07523887 -0.08309311 0.08560607 -0.06263425 0.04826908
0.15207131 -0.002034211 -0.13926835 0.06682917 0.10737311 -0.04480868 -0.15983427 0.14751972
-0.0003466075 -0.12896577 -0.04715447 0.118088946 -0.030806672 -0.13227673 0.07350913 -0.10696311
0.008969092 0.031859715 -0.1399234 -0.08094129 -0.13075338 0.12888674 -0.011027334 -0.02606746
0.055849314 -0.12134892 -0.10327472 -0.14501646 -0.09795969 -0.025520682 -0.17137754 -0.15143073
0.09057252 -0.120066114 -0.16573378 0.0034067426 -0.16726266 -0.15087745 -0.06684918 -0.050258096
-0.1362699 -0.07797466 0.17586333 0.16848907 0.093325354 -0.048634917 0.05230843 0.081939965
-0.1321499 0.09261395 -0.1573992 -0.08241002 0.12005932 -0.091813765 -0.10595782 0.1292382
0.10676005 0.000685532 0.16241682 -0.16470127 0.102463774 -0.015825149 0.11247271 0.11180765
-0.14292303 0.10901221 0.069963254 -0.1549504 -0.00579903 0.059476167 0.1297597 -0.092961036
-0.15310791 -0.09774297 -0.041646704 0.0001365795 -0.08951034 -0.0076808096 0.10276959 -0.14734557
0.032278243 0.14884639 -0.0071910247 -0.057106573 0.1565417 0.04783752 0.05472525 -0.05773915

encoder.layers.0.slf_attn.value_projection.bias f4 [32]
00000000: 4b52 083e ca19 4e3d c8f9 253e 5ab1 353e
00000010: b8e1 953c 3639 b23d 930e 2f3e 06ad ab3d
00000020: 6c47 0e3e 4c37 a03b 3416 8d3d fa7c cd3a
00000030: 74c5 3fbd e63c a73d ef98 f1bd caf6 afbd
00000040: 6187 1abe b609 82bd a8ba ee3d 3172 bfbd
00000050: d6a5 073e af65 d5bc eecd bfbc 0869 20be
00000060: 2d98 80bd 8bef f3bd 75a8 f83d b983 1dbe
00000070: b321 e2bd 4777 3f3d 493c 9b3d 6828 063e
0.13312642 0.050317563 0.16208565 0.17743436 0.018296108 0.08702318 0.17095403 0.08382611
0.13894433 0.0048894044 0.068890005 0.0015677505 -0.046819165 0.08165912 -0.11796748 -0.08591993
-0.15090705 -0.063495085 0.116566956 -0.09347952 0.13246855 -0.026049463 -0.023413625 -0.15665066
-0.06279025 -0.119109236 0.12141506 -0.1538228 -0.11041584 0.04674461 0.07579858 0.13101351

encoder.layers.0.slf_attn.out_projection.weight f4 [32, 32]
00000000: 443d 103e 8cf6 e03d b1fd 953d 538a 2fbe
00000010: 0100 8dbd f151 05bc e051 ad3d 3cfd a73d
00000020: b8dd 213e 8bbe 8d3d c23a 9c3d 0c10 703d
00000030: e332 28be 54d7 79bc 206e 4b3d 65f6 ac3d
00000040: 85ed 1fbe 3d25 d33c 6a8e a6bc 3bc0 27be
00000050: ec2e d4bd 88d0 f93d 251a 04be 25a7 21be
00000060: b0f6 1d3e a463 9c3c 88fa 0d3e 01c0 18be
00000070: 6edc 0cbe 9b99 1dbd 4339 21bb 1e75 1e3e
00000080: f814 e8bd e022 e2bc 6939 d93d f865 d63d
00000090: 0605 16be a1ef fa3c ac0d 063e 0f2c 083e
000000a0: 42a7 d1bd d08d 673d 21af 12be 5941 9d3d
000000b0: 2362 b83d 19d1 b1bd ed45 b6bd 4ece 1dbe
000000c0: abcc edbb 91ed 98bd 2614 f93d f66c 203d
000000d0: 11fb 283e 172a 8fbb 8a8c 913d 6d0c 1ebe
000000e0: 30c1 bdbd 40f4 e73c 7e02 d0bd 7dde 14bd
000000f0: 040f 2b3e 4228 753d fe2d 38bd 39c9 023e
00000100: 0756 af3d bc62 b53d c2cc 3c3d 3466 4d3c
00000110: 20d1 c2bc a3be 2f3e 1678 eebd d6cd 00be
00000120: 9595 aebd e7f6 4d3d bbde d1bd d694 6d3d
00000130: bb73 e6bd 3fbc 9d3d 45bf d23d 12d9 663d
00000140: 2ad0 debd 4ec6 8a3d cb3b 163e bd88 383e
00000150: f760 d13d 9bf6 52bc 52b4 743b 05dd 31be
00000160: ace4 b5bd 3e70 083e 903c 98bd 9b6c 2b3d
00000170: ffd4 cd3c d668 a93c fe90 823d abed e1bd
00000180: 73c7 2f3e 367a 213e 4f2c ba3c 7910 10bd
00000190: 83c0 2f3e f233 063e 28e2 b23d e54b a6bd
000001a0: 4c22 25be 21f1 133e c2fe 43bb 71e4 db3d
000001b0: 10f5 bebd 4d2e 00be 302a 3f3d e6b1 33be
000001c0: 4b9d 5b3d 3373 1539 d122 27be 91fa b53d
000001d0: 6807 883d bcdc 02be 7afa 0f3e 5eee 2c3d
000001e0: 181c e9bd 5c7d d2bd 27c9 333e c354 1b3e
000001f0: a14c 7c3c 55c6 65bd 0929 153d a121 cbbc
00000200: 79db da3d 6c25 d23d 8a13 d93c cee3 333d
00000210: c676 293e 8d0b 0bbe f73f 323d c7dd 153e
00000220: f1d5 d8bd a65d e2bd a882 a8bb 6cf9 233e
00000230: 3c36 00bd fc17 78bd 1842 103e f6d0 29be
00000240: e8ec d83d adb1 a53b ba4d 03be aac9 c23d
00000250: 7c3f 9cbd 29ab 13be a422 373e e677 4f3d
00000260: 4502 0ebe 12ca 033c febc e43d 10bf d3bd
00000270: 3a90 49bd 1ea7 8b3d 431b f8bc b569 15be
00000280: 0d6a 16be 34d0 ee3d 3b3c d1bd 8262 18bd
00000290: 2381 02bd 9a94 1bbc b54b 363d 3784 863d
000002a0: 3d3c 8e3d 0f89 0fbe b4fe c13d afc8 d0bd
000002b0: 2f37 07be 157e 123e dd6a 5d3d 662b 173e
000002c0: ec0b 88bd 780d e23d 09cb 30be ca03 16be
000002d0: 37eb 8e3d 071d 023e 3ccd dbbd ae63 bebd
000002e0: 6aa0 653d 3557 02bd 2679 0cbe 3592 023e
000002f0: e45f 8ebd f054 1ebe 0bba 163e 29e6 063e
00000300: 00fa ec3d d66e a4bd c645 7e3d eb99 bebd
00000310: cff0 ccbc 7eeb 12be 4f54 2dbe 3e29 b4bd
00000320: badb 23be 9530 5dbd b982 333e 91bf d8bd
00000330: 66bf 0abd 6003 8cbb 5c3d 1fbe bbb0 843d
00000340: 7399 8a3d 6e26 2cbe 69d4 8c3d 98f5 4c3d
00000350: abf2 b83d fc39 30bc 631d 253e 9375 c0bc
00000360: c5aa 27bc c280 dcbb cc92 053e 7b70 d03d
00000370: 03ae 0dbe cf01 d73d 3df9 04bd d0a2 33bd
00000380: 84b9 e0bc aea9 99bd 8271 123e b0f0 793c
00000390: 9b0b 033e 8fa1 e2bc c084 4dbd 7476 acbd
000003a0: 8f45 0abe c47a 6d3d 0c06 f0bd bc9c 80bd
000003b0: eb34 513c ba75 f13d 7fa8 a0bd fc7a 97bd
000003c0: 8246 30be 7beb 13be acb6 41bd 7b08 2ebe
000003d0: ff3f eebd 200f 163e e33b ffbd c146 c13d
000003e0: c382 163d d0f3 c2bd 3353 623c 641d 8ebd
000003f0: 67c9 a33d 301e ee3d 4a74 91bd e31e ddbd
0.14085871 0.10984525 0.073237784 -0.1714261 -0.06884766 -0.008137212 0.08462882 0.082025975
0.15807235 0.06921109 0.07628395 0.058609053 -0.16425662 -0.015249092 0.04966557 0.084454335
-0.1561795 0.025774593 -0.02033158 -0.16381924 -0.10360512 0.12197977 -0.12900598 -0.15786417
0.15426135 0.019090481 0.13865101 -0.14916994 -0.13755962 -0.038476568 -0.002460078 0.15474364
-0.113321245 -0.02760452 0.10606653 0.10468668 -0.14650354 0.030631842 0.13091153 0.13298057
-0.1023698 0.056531727 -0.14324619 0.0767848 0.09003093 -0.0868246 -0.08900056 -0.1541073
-0.0072570643 -0.07467187 0.12162046 0.039166413 0.16502024 -0.004369031 0.07106884 -0.15434428
-0.09265363 0.02831471 -0.10156725 -0.036344994 0.16704947 0.059852846 -0.044965737 0.12772073
0.0856133 0.08856723 0.04609371 0.012536574 -0.02378136 0.17162566 -0.11643998 -0.1257852
-0.08524624 0.050284293 -0.102475606 0.05800327 -0.112525426 0.07701921 0.10290388 0.056359358
-0.10879548 0.06776105 0.14671247 0.18020912 0.10223573 -0.012876178 0.0037338925 -0.17369469
-0.08881506 0.13324067 -0.074334264 0.04185162 0.025125979 0.020679872 0.06375311 -0.1103166
0.17165928 0.15769276 0.022726206 -0.03517196 0.17163281 0.13105753 0.08734542 -0.081199445
-0.16126364 0.14447452 -0.0029906486 0.10736931 -0.09324086 -0.12517662 0.046671093 -0.17548332
0.053616803 0.00014252662 -0.16321875 0.088856824 0.06642038 -0.12779516 0.14060393 0.042219512
-0.113823116 -0.10277817 0.17557202 0.15169053 0.015399129 -0.056097347 0.036416087 -0.024796309
0.10686392 0.10261044 0.026498575 0.043918423 0.16549215 -0.13578625 0.043518033 0.14635383
-0.10587681 -0.11053018 -0.0051425286 0.16013116 -0.031301722 -0.06056975 0.14087713 -0.16583619
0.10592061 0.005056581 -0.12822619 0.095111206 -0.07629296 -0.14420761 0.17884308 0.050651453
-0.13868053 0.008043783 0.1116886 -0.10339177 -0.04920981 0.068189844 -0.030286437 -0.14591105
-0.14688893 0.11660805 -0.10216566 -0.03720332 -0.031861436 -0.009495879 0.044505794 0.06568187
0.06945083 -0.14017127 0.09472409 -0.10194527 -0.13204645 0.14305909 0.05405699 0.14762649
-0.06642899 0.11037725 -0.17264952 -0.14649883 0.069784574 0.12706386 -0.10732505 -0.09296356
0.056061186 -0.03182145 -0.1371809 0.12751086 -0.069518834 -0.15462089 0.14719407 0.13173737
0.11571121 -0.08028953 0.06207826 -0.09306701 -0.02501717 -0.14347646 -0.16926692 -0.08796929
-0.16001788 -0.05400141 0.17530335 -0.105834134 -0.033873938 -0.0042728633 -0.1555075 0.06479021
0.06767549 -0.16811535 0.068764515 0.050038904 0.0903066 -0.010756012 0.16124491 -0.023493564
-0.010233586 -0.0067292163 0.1304428 0.10177704 -0.13835911 0.10498392 -0.032464255 -0.043856442
-0.02743221 -0.07503067 0.14301112 0.015255138 0.12797396 -0.027664928 -0.05017543 -0.08421031
-0.13503097 0.057978407 -0.11719903 -0.06279895 0.012768964 0.11790033 -0.07844638 -0.07396504
-0.17214397 -0.14445297 -0.04729335 -0.16995423 -0.116333 0.14654207 -0.12462594 0.09437323
0.036745798 -0.0951916 0.013813782 -0.069391996 0.07997399 0.116268516 -0.071022585 -0.10796907

encoder.layers.0.slf_attn.out_projection.bias f4 [32]
00000000: fbc6 ce3d 5895 b73d c7a8 28bd ef3b 163d
00000010: d4cc 603c 6280 f1bd ead4 00bd 979a 2abe
00000020: 9609 1dbe 3df2 c3bd 5359 c63d 836c 41bd
00000030: 408d 17bd e657 83bd deda 9d3b 9ba4 023e
00000040: e67c 02be 62f4 50bc 7b46 90bd 9ac0 2f3d
00000050: e073 fb3d ab66 0c3e 18f1 17be d9fb 10bd
00000060: f68a 2cbe 1325 ce3c 02af 06be 6835 103e
00000070: 76cb 6c3d c709 a3bd de4c 943d dfe4 1f3e
0.10096546 0.08964032 -0.041176584 0.03667825 0.01372071 -0.11792065 -0.03145305 -0.16660534
-0.15335688 -0.09567688 0.09685006 -0.047222625 -0.03699994 -0.0641325 0.004817351 0.12758105
-0.12742957 -0.012753578 -0.07044693 0.04290829 0.12277961 0.1371104 -0.14838064 -0.03539643
-0.16849884 0.025164163 -0.13152698 0.14082873 0.057811223 -0.07960849 0.07241224 0.15614651

encoder.layers.0.pos_ffn.w_1.weight f4 [64, 32]
00000000: 8992 343e e81e e7bd e7f4 223e 107c 37bb
00000010: de1c acbc 9ac2 99bd df7a 663d dc53 e2bc
00000020: 4e78 47bd 2953 22be eada 28bc 2cf7 5abd
00000030: 9919 723d 6a1b 323e 409e 35be 0bd7 8ebd
00000040: df1d ec3d 24e9 efbc 1d34 963d b295 9b3d
00000050: 00d5 ae3d 0638 dcbd dcd2 acbd 149d f33c
00000060: 95c6 563d cde3 9abc eebf 343e 7c7d c8bd
00000070: a8ee 1f3e b237 e5bc 4bd7 933d 75aa e03d
00000080: a529 2d3e 27be c93d c74a b4bd 738f c33d
00000090: 0f5d 16be 6e7c 263d ddf5 983d b74a 133e
000000a0: c14b 0b3e 62d8 093e 7e30 d2bd 3061 353e
000000b0: db85 653d 568f bdbc 325b ec3d af8f d93c
000000c0: 835c c73d f668 0c3e 1433 863d a2d2 193d
000000d0: 722f 193e ac4b 133e c713 f03d 89ce 05bd
000000e0: b901 f1bc 8e1d f13d cb5c 203e 2947 e2bc
000000f0: adad 04be 5ba0 8f3c 97bd a9bd 5d30 31be
00000100: 3431 523d 87e6 d3bd b720 b9bd 7f6e 34bd
00000110: f685 a33c 821c 8d3b a2bb 10be 56cd d1bd
00000120: 3e1a 133e 101a 0c3e 5947 0abe 0a96 56bd
00000130: 2083 243e 10f9 8c3d 324e 5fbc 3131 a6bc
00000140: e999 263e 6827 353e f774 fe3d 18ae 37bd
00000150: de0e 93bc 0969 5dbd 959a f7bd 0ced 003e
00000160: bae7 583c 6061 7ebd 6ac8 91bd 1cf1 18bc
00000170: f16e f63b 34fa 123e 813c 2a3e 2b26 22be
00000180: 5edf 103e 3729 d13d d921 673c a379 d43c
00000190: a02e 26be 75ab c8bd 7037 333d 8693 023e
000001a0: bfa7 e63d 4caf 6e3d 3652 a03d f07a c53d
000001b0: 98d6 24bd b668 c23d c86a 0d3d 2f72 b13c
000001c0: fd8a 373d 0b38 19be dd59 59bc 1ed5 05be
000001d0: 3385 9f3d 7787 3b3b 6161 193e 4b01 88bd
000001e0: a643 04bd 87ca 03be 0b28 0abe 216b 26be
000001f0: 432b b5bb fa39 26bd de90 c13d b9cb 343d
00000200: 1354 393d 1597 11be 0696 0e3e 1093 babd
00000210: 07b4 b2bd 0a32 943c 6814 bfbd c0fd 2dbb
00000220: 1c76 193d 72ab 123e a954 e0bd 1476 213e
00000230: 006c 89bc 1502 78bd ab66 c0bc bd3d e63d
00000240: 4799 1dbe c4dc c1bd 070f 21bc c91a c03d
00000250: 4e52 5abc aeb5 2c3c b669 253e e9b7 7fbd
00000260: 8c74 80bd 58cb f9bd 493b debc c7ba 07be
00000270: c84b 25bd e04b 38be 221a 65bd 668a 353e
00000280: 58dc b93d f349 0cbe ede7 c73d 577a 773d
00000290: 1a1a 233d 9870 053e 146d 1c3e d403 bebd
000002a0: a46f 21be 491b 3abd 4158 89bd ed89 18bd
000002b0: 9d7b 293e 7502 e9bd a8a0 f7bd 7bf4 563d
000002c0: b853 29be 099b 25be d4bb a0bc 341e d83d
000002d0: afbe 2dbe a5d1 8dbc b639 b7bd f253 7f3d
000002e0: be3e ad3d 268c 22be e63d 723d 5dd6 1c3e
000002f0: 6ac7 1fbe b95f 693d 4e6e 2d3c 4f7b 913d
00000300: ea5e abbd e955 fd3b 48ea 2e3d 5cf7 883d
00000310: 0359 bcbd 5638 8abc f930 a4bd 8d4f a5bc
00000320: 0357 29be b780 1c3d 7720 d63c 8e45 84bd
00000330: ede8 083e 7e64 e23b 4bc4 fabd 04b1 503c
00000340: 04f2 1d3e 21e2 f03d 0543 c43c f593 fdbd
00000350: 5cbb 1f3e 3728 dd3d af96 85bd d426 00be
00000360: 6052 c9bd 2f10 17be 697c b53b f5d4 c23d
00000370: d88f aa3b 2a94 ccbc 9007 103e 7faf 243e
00000380: 293b 2dbe 0664 9abd 0eba 27bd ef68 d93d
00000390: e26a d13d 3a3d 58bd b0a0 36be 4806 d0bd
000003a0: 3d55 33be a71b ed3d 4e01 703d 0447 193e
000003b0: 1b94 863d dfa2 a5bd 0ed1 ee3c 4d50 c03d
000003c0: 5a0c 5b3d 0f90 31be cf2d 58bd 7daf c0bc
000003d0: b9ad abbd 3ffe cdbd f3de 03be 191a 9dbd
000003e0: e65b 19be 615d 9dbd 2bae 00be 4992 cdbc
000003f0: c88b 313e 3452 8ebc fe9b 353d be84 11be
0.17634024 -0.11285192 0.15913735 -0.002799753 -0.021009859 -0.075078204 0.056269523 -0.027627878
-0.048698716 -0.15852036 -0.010306099 -0.053458378 0.059106443 0.1739327 -0.17736149 -0.0697461
0.11529135 -0.029285975 0.073341586 0.075969115 0.0853672 -0.10752873 -0.08438656 0.029737987
0.052435476 -0.018907452 0.1765134 -0.09789559 0.15618384 -0.02798066 0.07218798 0.10970012
0.16910417 0.09850722 -0.08803325 0.09548845 -0.14683937 0.04064601 0.0746877 0.1438397
0.13603117 0.1346145 -0.102631554 0.17712855 0.056035858 -0.023139637 0.115408316 0.026557771
0.09734442 0.13711914 0.06552711 0.03755439 0.14959505 0.14384335 0.11722522 -0.03266767
-0.029419767 0.11773215 0.15660398 -0.027621822 -0.12956877 0.017532518 -0.082881145 -0.17303605
0.051316455 -0.10346704 -0.09039443 -0.04405069 0.019961338 0.004306377 -0.14134076 -0.10244243
0.1436548 0.13681817 -0.1350378 -0.052389182 0.16065645 0.068834424 -0.013629483 -0.020287128
0.1626965 0.17690814 0.12424653 -0.044843763 -0.017951425 -0.054055247 -0.12090031 0.12590426
0.013238842 -0.062104583 -0.07118304 -0.009334829 0.0075205495 0.14353257 0.16624643 -0.15834872
0.14147708 0.10212939 0.014107191 0.025936907 -0.16228724 -0.09798328 0.04375404 0.12751588
0.11262464 0.058272645 0.078281805 0.09642589 -0.040243715 0.09492628 0.034525663 0.021660892
0.044810284 -0.14962785 -0.013266054 -0.13069579 0.077890776 0.002861468 0.14978553 -0.066408716
-0.032291077 -0.12870227 -0.13491838 -0.16251804 -0.005528839 -0.040582635 0.09451459 0.044139598
0.045246195 -0.1421779 0.13924417 -0.09110081 -0.08725744 0.018090267 -0.09330064 -0.0026548952
0.037466154 0.14323214 -0.10953648 0.157677 -0.016775131 -0.06054886 -0.023486456 0.112422444
-0.15390502 -0.09465936 -0.009830243 0.09380109 -0.013325287 0.010541363 0.16153607 -0.06243125
-0.062722296 -0.12196988 -0.027127879 -0.13254844 -0.040355474 -0.17997694 -0.055933125 0.17728576
0.0907523 -0.13700084 0.09761033 0.060419407 0.039819814 0.13031232 0.15275985 -0.09278074
-0.15765244 -0.045436177 -0.06706286 -0.03724091 0.16551061 -0.11377422 -0.120911896 0.05247925
-0.16535842 -0.16172422 -0.019620813 0.10552636 -0.16967271 -0.01731188 -0.08946554 0.062335916
0.08459233 -0.15873775 0.059141062 0.15316148 -0.15603414 0.056976054 0.010585381 0.071035974
-0.08367713 0.0077311886 0.042703897 0.06687805 -0.09196665 -0.016872566 -0.08017153 -0.020179534
-0.16537099 0.03820869 0.026138527 -0.06458579 0.13370104 0.0069089523 -0.12244471 0.012737516
0.15424353 0.11761881 0.023957739 -0.12381736 0.15598816 0.10798686 -0.06522881 -0.12514812
-0.09830165 -0.14752267 0.0055385125 0.095132746 0.005205136 -0.024972994 0.14065385 0.16082571
-0.16917099 -0.07538609 -0.04094892 0.106157176 0.102254644 -0.052792765 -0.17834735 -0.10157448
-0.17512985 0.1157754 0.058594994 0.14968497 0.065712176 -0.08087706 0.02915242 0.09390316
0.053478576 -0.1734011 -0.05277806 -0.02352118 -0.08382744 -0.10058259 -0.12878017 -0.07670993
-0.14976463 -0.07683826 -0.1256644 -0.025094168 0.17338479 -0.017373182 0.04433822 -0.14210793

encoder.layers.0.pos_ffn.w_1.bias f4 [64]
00000000: 99c6 b03d 5203 1c3e 049c f73d 9b0d 273e
00000010: ada0 12be f76c 413d 2456 04be d6ab 2f3e
00000020: 19ef 4fbd 57ad 0f3c c684 dd3d a465 d03d
00000030: 04db a0bd f11a 57bd 067a cd3d 2b83 e03d
00000040: c4f3 0dbd 3486 27be c310 8d3d 7673 053e
00000050: 3d7d 163e 11fe 09bd a5eb d33b 41a1 423d
00000060: 44a2 303e d09d 10be 4477 09bd 6670 c23d
00000070: f26c e8bd a586 86bd 844d 273e 55b4 323e
00000080: c2e9 e4bd 5684 f53d bf01 033e 51b6 0f3e
00000090: 561d 203e 6945 12be ae9f f73d a143 77bd
000000a0: 0a66 253e db71 f33d 6c66 683d e62e 22bc
000000b0: 1862 bb3c c16a 0c3e cdf1 7abd 575c 0e3e
000000c0: 367b 01be a16b fbbd ce86 a8bd 6091 05be
000000d0: 9f6f b83d 5e17 6fbd 50b6 09be 5b5f 8a3d
000000e0: 435e 063e ccce c53d a291 b0bd 323f 203d
000000f0: 6145 ac3d 3f73 b1bd 7c90 08be d502 203c
0.086316295 0.15235642 0.120903045 0.16313784 -0.14319105 0.047223058 -0.12923485 0.17155394
-0.05076513 0.008769355 0.1081634 0.101756364 -0.07854274 -0.052515928 0.1003304 0.10962518
-0.0346563 -0.16359788 0.06887963 0.13032326 0.14696212 -0.033689562 0.0064673 0.047517065
0.172494 -0.141227 -0.033561006 0.094940946 -0.11348905 -0.0656865 0.16338164 0.17451604
-0.11177398 0.11988132 0.12793635 0.14034392 0.15636191 -0.1428429 0.12091003 -0.06036723
0.16152206 0.118869506 0.056738302 -0.009898877 0.022873923 0.13712598 -0.061265755 0.13902412
-0.12644657 -0.12276388 -0.08228837 -0.13043737 0.09005665 -0.058371894 -0.13448453 0.06756469
0.13121895 0.09658584 -0.08621527 0.039122768 0.084116705 -0.086645596 -0.13336366 0.0097663

encoder.layers.0.pos_ffn.w_2.weight f4 [32, 64]
00000000: 8d71 973d 7e34 eeba 0587 c63d 29de 9f3c
00000010: 5e6f 4ebd e47f eb3d f730 683c 294e ed3d
00000020: 6064 e13d 3fa4 c1bc d2bc d13d 6ab9 fabd
00000030: 3570 84bd edf8 383d 242a c6bd 0fa4 873c
00000040: 101d ad3c 0d29 d73d 3b22 ad3d f7f0 113d
00000050: 3888 4bbd ed96 b13c 892b 8dbd 40c5 dc3d
00000060: 95ac e13d 03a7 c9bd 5cb4 253d 499f 923b
00000070: 86ff edbd c746 2a3d 015d 873d 9cdf ed3d
00000080: 41fb 44bd 0c8f dd3d 7720 a2bd f7a9 913c
00000090: 03bf 8a3d 3138 58bd 1035 20bd 132c e53d
000000a0: 7286 eb3d 31c4 913d 806c 503d a4b1 cbbd
000000b0: 93d9 f5bd 7145 a7bd f3fe 723d 4f07 8fbd
000000c0: ba03 7bbc 4cd5 f53d 37cd bd3d 0457 ddbc
000000d0: e553 cc3d 4268 c3bd 87fb efbd 6f33 923d
000000e0: 32a1 c73d 6525 b4bc 36bf bc3d 3667 c83c
000000f0: 8506 b7bc 817e 3bbc 9c5b e33d 3ca6 b13a
00000100: 18ca b53c f156 cc38 da52 c7bd e9d7 f83d
00000110: 69b0 e2bb 56b4 ab3d 9df6 c6bb e066 84bd
00000120: f054 663d 92df 06bd 313e 60bc e301 913d
00000130: c4ad bd3d e206 e13d e687 863d 1eef aabd
00000140: dfe9 c93d fbf9 973c 9043 48bd dbbe f33d
00000150: 356d fe3d a751 cbbd 7ec7 b5bd d1ba c5bc
00000160: 57f5 2bbd fddc 41bd 3712 963d 6d99 9d3d
00000170: a8aa 99bd ed91 413b fb76 ca3d 2b4e 89bd
00000180: e8cc e33d 3ea2 b73d 3e77 b4bd 8524 c73d
00000190: 94e3 f03c 888d 6f3d 4c43 783d d47d c2bd
000001a0: ef91 013e e93e 62bd f7e4 bfbd 8f84 8dbd
000001b0: 0ceb 253d 5826 c5bd e1e3 213b 364d ea3d
000001c0: 3716 973d d7db 08bc d223 da3d 6c9f 45bc
000001d0: c01a 223d 1ae8 bc3c aaa1 70bd db39 2d3d
000001e0: 9190 0a3d c2b3 8c3d 95c9 e83d f051 1c3d
000001f0: 5826 d83d f253 abbd 4163 8bbd 195c 5c3d
00000200: 2c74 c0bc ba48 d3bd d25f d03c e904 6f3c
00000210: bcb5 e93b 5eb6 ebbc e780 f3bd 1748 fdbd
00000220: 53d3 ce3d 4ef8 fbbc 71f9 d2ba 9016 943d
00000230: 13bf 923c 5730 9f3c af9e f43c fa62 7bbc
00000240: 0f47 fa3a a448 bf3c 7209 cdbd 8771 34bd
00000250: acb7 74bd cdc8 debd 9f9a 063d 300c cf3a
00000260: c779 d3bd 0776 59bb 2c2c c03d 0caf 823d
00000270: ef43 2fbd c48d c13c a364 9d3d 32bc 2c3d
00000280: 2758 e8bd 8190 bc3c 20d4 e338 a2c4 acbd
00000290: 1740 f33d 89f0 e6bd 60bb 4dbd 0bc8 ebbd
000002a0: 05e7 ea3d cfee a7bd 63b5 8dbc 1333 c5bd
000002b0: dfdc cbbb c83f 843d 0fe4 21bd a5cf b7bd
000002c0: e0d9 acbd 484e a23c ec1e fabd 01f0 653c
000002d0: cfb0 de3b e6cd 893d 8889 abbd b27f cfbd
000002e0: 1a16 c03d 9e34 7b3d 8f45 77b9 8a22 d8bd
000002f0: 02ee 70bb d7aa 99bd 253b 5fbd 5303 283c
00000300: 98d7 95bd 1999 b4bd 7a80 b43d 1969 943d
00000310: 737b f93d 1fd7 b33d 671f 3dbc 3138 923c
00000320: 5784 863d 0102 f93d 15ea 123b 29e5 9d3d
00000330: 8687 e23b c42a bbbd cc17 513d 0e68 8fbd
00000340: ae9a 533b de8d adbd e612 a73d 4191 60bd
00000350: cc2a 513c a5ac 4a3d ce07 c6bd 6423 3abd
00000360: 5e6f ef3d 413c cdbd e311 213d ffc8 d7bc
00000370: 6182 633d b490 7fbc 23de 313d 4f23 ffbd
00000380: b553 703d 0806 06bc bf8a 94bd 2546 113d
00000390: 0e34 b93d 2ec6 e43d 5a09 353d 5779 e13d
000003a0: 17e9 ad3d a734 1bbc 7b26 8f3c 4638 84bd
000003b0: da0c 02be f448 693d dbe5 bf3d 28dc 1f3d
000003c0: b2a7 9ebd 4780 d7bc c591 993d ad22 803b
000003d0: 0484 193d 46fc d1bd fd06 7fbd 8791 a23d
000003e0: 43be fa3d d89e cdbc 81d6 353d 89d3 eb3d
000003f0: 2dca ab3d f77d edbd ef0d de3c 2e4b 96bd
0.07394705 -0.0018173603 0.09693722 0.019515114 -0.050399177 0.114990026 0.01417183 0.115871735
0.11005473 -0.023637889 0.10241093 -0.12242396 -0.06466714 0.04515927 -0.096760064 0.016557721
0.021132022 0.10505877 0.084537946 0.035630193 -0.049690455 0.021678412 -0.06893069 0.1077981
0.110192455 -0.09846308 0.040455207 0.0044745547 -0.11621003 0.041571405 0.06609536 0.11614916
-0.048091177 0.108183 -0.079163484 0.01778124 0.06774714 -0.052787963 -0.039113104 0.11190047
0.11500253 0.07117499 0.050884724 -0.09945992 -0.120043896 -0.08167542 0.05932517 -0.06983816
-0.015320713 0.12003574 0.09267657 -0.027019031 0.09976939 -0.0954137 -0.11717897 0.071387164
0.097475424 -0.021990487 0.09216158 0.024463277 -0.022341976 -0.011443735 0.111014575 0.001355357
0.022191092 9.743672e-05 -0.097325996 0.121505566 -0.0069180024 0.08384006 -0.006071879 -0.06464934
0.056233346 -0.032928057 -0.013686703 0.07080438 0.09261659 0.10987641 0.06568889 -0.08346389
0.098590605 0.018551817 -0.048892558 0.11901637 0.12423173 -0.09927683 -0.08875941 -0.024136933
-0.04198202 -0.04732989 0.07327693 0.07695279 -0.07503253 0.0029536441 0.09885975 -0.067043625
0.11123067 0.08966492 -0.08811806 0.097237624 0.029405393 0.058484584 0.060611054 -0.09496656
0.12653325 -0.055235777 -0.093698435 -0.06910049 0.04050736 -0.09626454 0.0024702477 0.11440508
0.07377284 -0.008353195 0.106513634 -0.012061935 0.039576292 0.023059893 -0.058747925 0.042291503
0.033829276 0.068702236 0.11366574 0.03816408 0.105541885 -0.08365621 -0.068060406 0.05379877
-0.023492895 -0.10316606 0.025436316 0.014588573 0.00713226 -0.028773483 -0.118898205 -0.12367266
0.10098901 -0.03075805 -0.0016096068 0.07230866 0.017913377 0.01943223 0.029860822 -0.015343422
0.0019094663 0.023350067 -0.10011567 -0.04405358 -0.059745476 -0.108781435 0.032862302 0.0015796479
-0.103259616 -0.0033181922 0.09383425 0.06381044 -0.042789396 0.02362717 0.076852106 0.042171665
-0.11344939 0.023018124 0.00010863715 -0.08435942 0.118774585 -0.11276347 -0.050227523 -0.115127645
0.11469845 -0.08199846 -0.017298406 -0.09628882 -0.0062213982 0.06457478 -0.039524134 -0.08975152
-0.08439994 0.019812718 -0.12212929 0.014034272 0.0067959796 0.06728725 -0.083758414 -0.10131778
0.093792155 0.061329477 -0.00023581668 -0.10553463 -0.0036762957 -0.07503288 -0.054499764 0.010254699
-0.07316512 -0.088182636 0.088135675 0.07246608 0.12181749 0.087812655 -0.011543131 0.01784906
0.065682106 0.12158585 0.0022417356 0.077097245 0.0069131283 -0.09139016 0.051048085 -0.07002269
0.0032288241 -0.08474325 0.081579015 -0.054826025 0.012766551 0.049481053 -0.096694574 -0.045443907
0.116911635 -0.10021258 0.0393237 -0.02634096 0.05554426 -0.015598465 0.043424737 -0.124579065
0.05867358 -0.008180149 -0.07253026 0.035467286 0.09043132 0.11170612 0.04419837 0.11009472
0.08491724 -0.0094730025 0.017474404 -0.06456046 -0.12700215 0.05695434 0.09370013 0.039028317
-0.07746829 -0.026306285 0.074985065 0.0039103837 0.037479416 -0.102531955 -0.062262524 0.079379134
0.12243321 -0.025100157 0.04439402 0.115149565 0.08388171 -0.115962915 0.027106253 -0.07338558

encoder.layers.0.pos_ffn.w_2.bias f4 [32]
00000000: 9008 e03c a240 b2bd 3069 603d 5415 a83d
00000010: 3c9d c5bc f765 b63d 42bc 673c 886c 643c
00000020: 8889 5dbd 51dc e7bc 52fe 98bd 0832 c73c
00000030: 55ae e63d 7e31 debd eb12 8e3d 0b6b debc
00000040: 352e 763d 9723 dbbd a479 be3d 39ce 20bc
00000050: b1b1 4b3d 4012 d43d a5d9 923d 420c 093d
00000060: 6569 a2bd 6eb6 48bd 7b5d aa3d ce67 7d3d
00000070: 3390 9abb 4695 f0bd e032 bdbd aeb8 a53d
0.027347833 -0.08703734 0.054787815 0.08207193 -0.024122827 0.08906167 0.014144005 0.0139418915
-0.05408624 -0.028303297 -0.07470383 0.024315849 0.1126372 -0.10849284 0.06937202 -0.027150651
0.06010266 -0.107001476 0.09300545 -0.009814792 0.049730007 0.103550434 0.07170419 0.033458956
-0.07930259 -0.049002104 0.08318611 0.061866574 -0.004716897 -0.11747222 -0.09238219 0.080918655

encoder.layers.0.pos_ffn.layer_norm.weight f4 [32]
00000000: 51a2 7e3f e354 803f 6f6c 803f 2c36 803f
00000010: 2a9e 803f b258 7f3f c7f2 7e3f ca43 803f
00000020: 7088 803f e8b5 803f 29c5 7f3f 1c02 803f
00000030: ba61 803f b4d3 7e3f e021 803f f724 803f
00000040: 4440 7f3f da84 803f 6a94 803f 45a2 803f
00000050: 34eb 7f3f 65d3 7e3f ea08 7f3f 2996 7f3f
00000060: 4ebd 803f 95c6 7e3f e75b 803f 48dc 7e3f
00000070: 7a12 7f3f b98b 803f 0f47 7f3f cea6 803f
0.99466425 1.0025905 1.0033091 1.0016532 1.0048268 0.99744713 0.995892 1.0020688
1.0041637 1.0055513 0.9991022 1.0000644 1.0029824 0.99541783 1.0010338 1.0011281
0.99707437 1.0040543 1.0045292 1.0049521 0.99968266 0.9954131 0.99622977 0.998385
1.0057771 0.9952176 1.0028046 0.9955487 0.9963757 1.004264 0.997178 1.0050905

encoder.layers.0.pos_ffn.layer_norm.bias f4 [32]
00000000: 145d adbb cff1 843a d8bd 6c38 ec85 56bb
00000010: 7b76 8abb fea9 f43a aa6c 02b9 ac37 e0b6
00000020: 3d01 723a 35b5 663a 373a 70bb dfd3 0d3a
00000030: 8f4c 84bb 3141 523b b55c e239 215a 6d3a
00000040: 6e0c 12ba 61eb 2dbb 01a2 43bb 12fe 8bbb
00000050: 1f43 6e3a 06aa 88bb 93c0 933b 42c2 3c3a
00000060: 9e21 91ba 7363 71bb a266 903b d820 83bb
00000070: 9cce ccba 49cb 41bb f820 f63a 4c32 923b
-0.005290637 0.0010142865 5.644359e-05 -0.0032733632 -0.0042255498 0.0018666384 -0.00012438247 -6.6822013e-06
0.0009231752 0.00088008057 -0.0036655793 0.00054102944 -0.004037447 0.0032082314 0.0004317515 0.0009054263
-0.000557131 -0.0026538002 -0.00298512 -0.004272231 0.00090889813 -0.004170659 0.0045090406 0.00072005775
-0.0011072641 -0.0036832958 0.004406766 -0.004001718 -0.0015625539 -0.002957063 0.0018778136 0.0044615623
